ModelDilAgirlik.pth (torch, 398534 bytes, 16 tensors)

conv1.weight f4 [8, 3, 5, 5]
0	0x3d6ad22b	0.057329338
1	0x3dd97f3c	0.10619971
2	0x3dc6dc0c	0.09709939
3	0x3bbb178f	0.0057095955
4	0xbe05e4ca	-0.13075557
5	0x3ce80b4a	0.028325696
6	0x3c879cb8	0.016554222
7	0x3dccfa73	0.10008707
8	0xbda90d4a	-0.08254488
9	0xbe10fa3a	-0.14157954
10	0xbd17808e	-0.036987834
11	0xbdce192e	-0.100633964
12	0xbe0507c5	-0.12991245
13	0x3c1204c9	0.008912274
14	0xbe2112c4	-0.15729815
15	0xbd2cf038	-0.042221278
16	0xbdbb4637	-0.09144252
17	0x3c3bba40	0.01145798
18	0x3dcb022b	0.09912523
19	0xbdd69551	-0.104776986
20	0x3ca06211	0.019578012
21	0x3dca93e1	0.09891487
22	0x3cbf37b2	0.023341987
23	0x3d08e979	0.033425782
24	0x3d790fb2	0.060805984
25	0x3e0a35a0	0.13497019
26	0xbd718f62	-0.05897463
27	0x3d81fcfe	0.063470826
28	0x3e0998fc	0.13437265
29	0xbdba78a0	-0.09105039
30	0x3db273b8	0.08713478
31	0xbdd89246	-0.105747744
32	0x3dc98a12	0.09840788
33	0x3baf5265	0.0053503984
34	0x3c92613c	0.01786863
35	0xbdfa9199	-0.12234802
36	0xbde47f7b	-0.111571275
37	0x3d6f93f6	0.058490716
38	0x3cbecf3f	0.023292182
39	0xbac11590	-0.0014731158
40	0xbd9c85b9	-0.07642693
41	0xbd1ed5ab	-0.03877799
42	0xbdc7ce82	-0.09756185
43	0x3da12074	0.07867518
44	0x3ce815ae	0.02833065
45	0x3c8691dd	0.016426975
46	0xbb28ac39	-0.0025737418
47	0xbd2ef995	-0.04271849
48	0x3dc9d450	0.098549485
49	0x3cf4ca0a	0.029881496
50	0xbdcca020	-0.09991479
51	0xbc25f869	-0.010130026
52	0x3dc41932	0.09575118
53	0xbd7e637c	-0.062106594
54	0x3dfca39b	0.12335893
55	0x3d38d0bf	0.04512095
56	0x3d60da04	0.054895416
57	0xbd37f68c	-0.04491286
58	0x3d947cdf	0.0725038
59	0x3d198ae1	0.03748596
60	0xbe1d25a4	-0.1534639
61	0x3c3ac79f	0.011400132
62	0x3cc9190c	0.024548076
63	0x3db738e4	0.08946398
64	0xbda68945	-0.08131651
65	0xbd7999bb	-0.060937624
66	0xbcb6bd02	-0.022306923
67	0x3d65ccfd	0.056103695
68	0x3d5aad89	0.053388152
69	0x3d1eaaab	0.03873698
70	0xbd768168	-0.060182005
71	0xbcfbd9aa	-0.030743439
72	0xbd25183e	-0.040306322
73	0x3db012fc	0.08597371
74	0xbd4d4225	-0.05011191
75	0xbdea5741	-0.114424236
76	0x3d58a06b	0.05288736
77	0x3ce52b60	0.027974784
78	0x3d928340	0.0715394
79	0xbd992556	-0.074778244
80	0xbc37a1f2	-0.011208044
81	0x3cade835	0.021228889
82	0x3ce4ad3f	0.027914641
83	0xbd8f73df	-0.070045225
84	0x3d8a58e4	0.06755236
85	0x3da25c50	0.079277635
86	0xbc619081	-0.013767363
87	0xbafa86d6	-0.001911367
88	0xbdf7d238	-0.12100643
89	0x3cdc2ad3	0.026875889
90	0x3d9786e3	0.073987745
91	0xbdfa95d0	-0.12235606
92	0x3d35a116	0.044343077
93	0xbc082b8a	-0.008311162
94	0x3c0677c7	0.008207268
95	0xbc2ba087	-0.010475284
96	0x3dac37c9	0.08409078
97	0xbdd2060e	-0.10255061
98	0xbdbcfbee	-0.09227739
99	0x3d751139	0.059830878
100	0x3d80b589	0.06284625
101	0xbca31ebf	-0.019912122
102	0x3d0c4599	0.03424606
103	0xbdcaffa8	-0.09912044
104	0xbc9ac336	-0.018891912
105	0x3d6cce4e	0.057813935
106	0x3dd0815e	0.10180925
107	0xbda7a33e	-0.08185433
108	0x3d992590	0.074778676
109	0xbd8faf57	-0.07015865
110	0xbcfba686	-0.030719053
111	0x3cee4a5f	0.029088197
112	0xbb092bb3	-0.0020930588
113	0xbd1b7efa	-0.03796289
114	0xbd52806e	-0.05139201
115	0xbb08d078	-0.002087621
116	0xbda3c848	-0.07997185
117	0xbd13b117	-0.036057558
118	0x3dd4957d	0.10380075
119	0x3d604569	0.054753695
120	0xbdc94dc5	-0.098292865
121	0x3dca4f08	0.09878355
122	0x3dbaf4f5	0.09128753
123	0xbddaae51	-0.106777795
124	0x3d2900d4	0.041260555
125	0xbd695602	-0.05696679
126	0xbdbf2859	-0.093338676
127	0xbe170de9	-0.147514
128	0xbd18e568	-0.037328154
129	0x3c7c38da	0.015394414
130	0xbd68dfcd	-0.056854058
131	0x3d4ae626	0.049535893
132	0xbdb63a18	-0.08897799
133	0x3d4f031a	0.050540067
134	0xbe2f355e	-0.17110202
135	0x3d13bf53	0.036071133
136	0xbc1184ac	-0.008881729
137	0x3c4a496a	0.012346605
138	0xbda25c52	-0.07927765
139	0xbd9b796b	-0.07591518
140	0x3d340dad	0.043958355
141	0x3d821a1b	0.063526355
142	0x3d9529d4	0.07283369
143	0x3da8664c	0.082226366
144	0xbdd3e487	-0.103463225
145	0x3dd4a15e	0.10382341
146	0x3da5e527	0.08100348
147	0x3c8e2c08	0.01735498
148	0xbd5eb076	-0.054367505
149	0xbba36c3c	-0.004987268
150	0xbd4c7f40	-0.049926043
151	0xbd807dae	-0.062739715
152	0x3c73324a	0.014843533
153	0xbcb3136d	-0.021859849
154	0x3be4a0fe	0.0069771996
155	0xb9cc7a5a	-0.0003900107
156	0xbd29a17c	-0.04141377
157	0xbdebbcb9	-0.11510605
158	0x3dbae199	0.091250606
159	0x3df24169	0.11828882
160	0x3d01312e	0.031541042
161	0x3d156ce2	0.036480792
162	0xbdad2c5e	-0.08455728
163	0xbe1ab91f	-0.1510968
164	0x3cf82e00	0.030295372
165	0xbe1f6614	-0.15566283
166	0xbbb832d1	-0.005621292
167	0xbdd29f82	-0.1028433
168	0xbdf30069	-0.118653126
169	0xbdbf180c	-0.093307585
170	0xbe0b699f	-0.1361451
171	0xbe085a01	-0.13315584
172	0xbe32802d	-0.17431708
173	0xbe3880f4	-0.18017942
174	0xbdfa6121	-0.12225557
175	0x3dfd0b3e	0.1235566
176	0xbb8cbe64	-0.0042951573
177	0x3d010e04	0.031507507
178	0x3d85d86c	0.0653542
179	0x3e10530f	0.14094184
180	0x3d97519c	0.07388613
181	0xbdc5a3d8	-0.09650391
182	0x3d20f825	0.03929915
183	0x3df56643	0.119823955
184	0x3db6c584	0.08924392
185	0x3d9d573c	0.07682654
186	0xbcfe7c87	-0.031065239
187	0x3d288ae4	0.04114808
188	0xbc4d2a50	-0.012522295
189	0xbd9a190d	-0.07524309
190	0xbc99fd73	-0.018797612
191	0xbc5e8cf7	-0.013583413
192	0xbc93bf35	-0.01803551
193	0xbdc8b03f	-0.09799241
194	0x3d677c8a	0.056515254
195	0x3d2408b2	0.040047355
196	0x3c321b07	0.010870702
197	0xbcc6d881	-0.024273159
198	0xbe2baf38	-0.1676606
199	0x3c8d677f	0.017261265
200	0x3c0202b9	0.007935219
201	0x3d00f672	0.03148503
202	0xbdff4d9f	-0.12465977
203	0xbd493b7f	-0.049129006
204	0x3e06d5d8	0.13167512
205	0xbd9522d7	-0.07282036
206	0x3c728e01	0.014804364
207	0xbe00e5ee	-0.12587711
208	0x3db6d1df	0.089267485
209	0xbd4b0a32	-0.04957027
210	0xbd6be478	-0.05759093
211	0xbcdfac24	-0.027303763
212	0xbcdee297	-0.027207656
213	0xbdb00a5b	-0.08595725
214	0xbb2efb77	-0.0026700178
215	0xbde8c694	-0.11366001
216	0xbcf38e6d	-0.029731
217	0xbdf8ca70	-0.12147987
218	0x3bc80927	0.0061046067
219	0xbcd56511	-0.026049169
220	0xbd9f8bda	-0.077903464
221	0x3c85d4df	0.016336856
222	0xbe057ae9	-0.13035168
223	0x3d94da92	0.072682515
224	0xbd1040ac	-0.035217926
225	0xbd5b46e0	-0.05353439
226	0x3c00dc68	0.007865049
227	0x3d8d85f0	0.06910312
228	0xbdbbf9f4	-0.09178534
229	0xbdbdf6f5	-0.09275619
230	0xbcffabd0	-0.031209856
231	0xbd861b6a	-0.065481976
232	0xbdb0ca25	-0.08632306
233	0xbcd7de90	-0.026351243
234	0xbd9bdd55	-0.07610575
235	0xbd098a86	-0.033579372
236	0xbe07ec29	-0.13273682
237	0xbdc30aba	-0.0952353
238	0xbe065e9e	-0.13122031
239	0xbe0cd4ae	-0.13753006
240	0xbd80570f	-0.06266605
241	0xbd0dfa6e	-0.034662656
242	0xbcee1216	-0.029061358
243	0xbd510377	-0.051028695
244	0xbdf1b210	-0.11801541
245	0xbcfd185b	-0.030895403
246	0x3d316ac5	0.043314714
247	0xbd703b95	-0.05865057
248	0xbe26463d	-0.16237731
249	0xbe31c790	-0.17361283
250	0xbad1952d	-0.0015989892
251	0xbdab6d8f	-0.08370506
252	0xbdab880d	-0.08375559
253	0xba9985b0	-0.0011712816
254	0x3dc1d2d3	0.0946404
255	0xbd425e87	-0.04745343

conv1.bias f4 [8]
0	0xbe02f8c7	-0.12790214
1	0xbdb9ef70	-0.09078872
2	0xbc267163	-0.010158869
3	0xbd375bc3	-0.044765245
4	0xbdec95d9	-0.11552019
5	0xbd0f89a1	-0.035043363
6	0xbdde86fb	-0.10865589
7	0x3d82c496	0.06385152

conv2.weight f4 [16, 8, 5, 5]
0	0x3d563bb4	0.05230303
1	0x3dfc47be	0.12318371
2	0x3ce00c45	0.0273496
3	0x3dd74e38	0.10512966
4	0xbd74a286	-0.059725307
5	0xbb5333e6	-0.0032226979
6	0x3c1c1cbd	0.009528336
7	0x3d44bf6d	0.04803412
8	0xbd87cfd9	-0.06631441
9	0x3d2e05f6	0.042486154
10	0xbd174116	-0.036927305
11	0xbdc1d37a	-0.09464164
12	0xbe00c800	-0.12576294
13	0xbd5e5f45	-0.054290075
14	0x3d6056ff	0.054770466
15	0xbd8e7afc	-0.06957051
16	0xbd20f7f6	-0.039298974
17	0x3c59b4d5	0.013287743
18	0x3d069874	0.032860234
19	0xbcc9ae7c	-0.024619333
20	0x3d9780b9	0.07397599
21	0x3da8d349	0.082434244
22	0x3d6ebbe6	0.058284663
23	0x3d960420	0.073250055
24	0xbcaf1aa9	-0.021375017
25	0x3d417b1e	0.047236554
26	0x3bc08ccd	0.0058761598
27	0x3dc05146	0.09390502
28	0x3dfc06be	0.123059735
29	0x3ccd6481	0.025072338
30	0x3cb1f9b0	0.021725506
31	0x3e030d4d	0.12798043
32	0x3e098b89	0.13432135
33	0x3c3579ec	0.011076432
34	0x3dd109f7	0.10206979
35	0xbbf515d0	-0.007479407
36	0x3cf9d2a3	0.030495947
37	0xba94899c	-0.0011332515
38	0x3d8fb615	0.07017151
39	0xbadd888a	-0.0016901654
40	0xbd27b8de	-0.040947787
41	0x3d1e4cbe	0.038647406
42	0xbd8b22db	-0.067937575
43	0xbd4fff19	-0.05078039
44	0xbca062bb	-0.019578328
45	0x3cb9d418	0.022684142
46	0x3c1a1a97	0.009405754
47	0xbd806313	-0.06268897
48	0xbc8e969b	-0.017405799
49	0x3ce1ac90	0.027548105
50	0x3db33634	0.08750573
51	0x3d0df0a2	0.034653313
52	0xba84c662	-0.0010129923
53	0xbcd57947	-0.026058806
54	0xbdaf174d	-0.08549366
55	0xbdb97f97	-0.09057539
56	0xbb95a996	-0.0045673354
57	0xbe10c0de	-0.14136073
58	0xbd9faa20	-0.07796121
59	0x3bd67896	0.0065451367
60	0xbb61cab4	-0.0034453096
61	0xbd988a66	-0.074482724
62	0x3c5c229f	0.013435989
63	0x3d6ed05a	0.05830417
64	0xbbe6ca5f	-0.0070431675
65	0xbd7a8568	-0.061162382
66	0xbc349697	-0.011022232
67	0x3c12703c	0.008937892
68	0x3dc1e79f	0.09468006
69	0x3d7732f2	0.06035132
70	0x3d42980b	0.04750828
71	0x3dad1a4f	0.084522836
72	0x3bce0b4f	0.006287969
73	0x3c6de34c	0.014519524
74	0x3d880021	0.066406496
75	0x3d8eb677	0.06968396
76	0x3da288d2	0.07936253
77	0xbcd866aa	-0.026416142
78	0xbd045377	-0.03230616
79	0x3c50a4de	0.01273462
80	0x3c44eaeb	0.012018899
81	0xbd68e538	-0.056859225
82	0x3b825ec7	0.0039785835
83	0xbd843e72	-0.06457223
84	0xbde07a64	-0.10960844
85	0xbd75f05e	-0.060043685
86	0xbdb1ddab	-0.08684858
87	0xbd80994c	-0.06279239
88	0xbdafcf5c	-0.085844725
89	0xbbaa9643	-0.005205901
90	0xbd92896a	-0.07155116
91	0x3d97d1c8	0.074130595
92	0x3dbd4417	0.09241503
93	0xbc8bceb9	-0.017066346
94	0xbb551763	-0.003251516
95	0xbcd83f25	-0.026397297
96	0x3cebdb24	0.028791018
97	0x3cd195c1	0.025584104
98	0x3d858306	0.06519131
99	0x3cf05802	0.02933884
100	0x3d57df99	0.052703474
101	0x3da2acab	0.0794309
102	0x3cd012b1	0.025399538
103	0xbc5916e6	-0.013250088
104	0x3d18e800	0.037330627
105	0xbd0fc882	-0.03510333
106	0xbc838858	-0.016056225
107	0xbd6ff20a	-0.058580436
108	0xbba70b2a	-0.0050977664
109	0xbd6bed29	-0.05759922
110	0xbda9f167	-0.08297997
111	0xbddacc93	-0.10683551
112	0xbdb9c706	-0.09071164
113	0xbd6d0517	-0.057866182
114	0xbd2c6bb0	-0.042094886
115	0x3ca5d661	0.020243825
116	0xbd3a6ad7	-0.045512047
117	0x3d9de373	0.07709398
118	0x3d3cd009	0.046096835
119	0x3cf76153	0.030197775
120	0x3d3859ee	0.04500764
121	0x3deb605d	0.11492989
122	0x3d5b24f7	0.05350205
123	0x3d10a945	0.035317678
124	0x3d652195	0.05594023
125	0xbd2d5eb8	-0.04232666
126	0xbd53fbc4	-0.051753774
127	0xbd800f3e	-0.06252907
128	0xbd34be92	-0.044127055
129	0x3df658ef	0.120286815
130	0x3d81439a	0.06311722
131	0xbd402eb3	-0.046919536
132	0x3d9382e8	0.07202703
133	0xbd59b93b	-0.053155165
134	0x3c9c544a	0.01908316
135	0x3d694603	0.056951534
136	0xbd2414d8	-0.04005894
137	0x3be94518	0.0071188323
138	0x3c9a75cd	0.018855
139	0x3bd2cfb5	0.006433452
140	0xbd506fbd	-0.050887812
141	0xbd198bd3	-0.037486862
142	0x3d038b3b	0.032115202
143	0xbdc22db5	-0.09481374
144	0x3bace8ca	0.005276774
145	0xbe24428f	-0.16041015
146	0xbdf948ff	-0.12172126
147	0xbd80169c	-0.062543124
148	0xbdb41d1a	-0.08794613
149	0xbd62a35f	-0.055331584
150	0xbc944d23	-0.018103188
151	0xbd182d04	-0.037152305
152	0xbd4c9cbe	-0.04995417
153	0xbd4d1e40	-0.050077677
154	0xbe1a2f02	-0.15056995
155	0x3d9bd162	0.07608296
156	0xbc02000e	-0.007934583
157	0x3ce6d8c4	0.028179534
158	0xbd893e10	-0.067012906
159	0xbcdb1092	-0.0267413
160	0x3d0cdd57	0.034390774
161	0xbd06c043	-0.0328982
162	0xbd884579	-0.06653876
163	0xbd4c5e95	-0.049894888
164	0xbc8d8f76	-0.017280322
165	0x3db9ba5e	0.0906875
166	0x3ca2a584	0.019854315
167	0x3d871776	0.06596272
168	0x3d129d86	0.035794757
169	0x3dae1c31	0.08501471
170	0xbc03cbd8	-0.008044206
171	0xbd842026	-0.06451444
172	0xbdf1cdce	-0.11806832
173	0x3d7eddf5	0.062223393
174	0x3db4f3fa	0.08835597
175	0x3d327793	0.043571066
176	0xbc3e2f97	-0.011608026
177	0x3d316c41	0.04331613
178	0x3d21cc82	0.039501674
179	0x3cca55a1	0.024699034
180	0x3b841548	0.0040308572
181	0x3d18acd2	0.03727419
182	0x3d0bf81c	0.034172162
183	0x3d95a139	0.073061414
184	0x3d0494f9	0.032368634
185	0x3d20c6aa	0.03925196
186	0x3d393b14	0.045222357
187	0x3da3f32d	0.080053665
188	0x3c9611b4	0.018318988
189	0x3c283abf	0.010267912
190	0xbd4ebc4a	-0.050472535
191	0x3cb1bb87	0.021695865
192	0x3d122ea8	0.035689026
193	0x3cabf09b	0.020988753
194	0xbd5d7d84	-0.05407478
195	0xbe11dc74	-0.14244252
196	0xbd5123fe	-0.051059715
197	0xbdacda41	-0.08440066
198	0x3c70a1b5	0.014686991
199	0xbd27dcc4	-0.040982023
200	0xbd13f912	-0.036126204
201	0x3d02cc03	0.031932842
202	0xbcdb8f02	-0.02680159
203	0xbcf79dbf	-0.030226586
204	0x3dcdb4a4	0.1004422
205	0xbcc6ab78	-0.024251685
206	0x3d163b4d	0.036677647
207	0xbd89f49d	-0.067361094
208	0x3c8e6b35	0.017385105
209	0x3d907bb0	0.070548415
210	0xbde9a55b	-0.11408492
211	0xbd96d6c8	-0.07365185
212	0x3b775eb7	0.0037745663
213	0xbce5a944	-0.028034814
214	0x3ba50e2d	0.0050370903
215	0xbd9dd212	-0.07706083
216	0xbd5ee4f6	-0.054417573
217	0xbc140f23	-0.009036812
218	0x3c9208b6	0.01782642
219	0xbdba567d	-0.090985276
220	0x3d0a2f29	0.03373638
221	0x3bde3ad1	0.006781914
222	0x3d969ab5	0.07353727
223	0x3d76a95c	0.060220107
224	0xbe10ecda	-0.14152852
225	0xbce15587	-0.027506603
226	0x3d86d6c4	0.06583932
227	0x3b7d1172	0.0038615135
228	0x3d3e66a7	0.046484616
229	0xbd458a20	-0.04822743
230	0x3d8122a5	0.06305436
231	0x3d401706	0.046896957
232	0xbc8b7ab6	-0.017026287
233	0xbdbf8f44	-0.093534976
234	0x3d2c4af7	0.04206368
235	0x3c251132	0.0100749
236	0x3d16ae6f	0.036787447
237	0xbd32ee02	-0.043684013
238	0x3c64e3e5	0.01397035
239	0xbd9ccca1	-0.07656217
240	0xbd55b5ab	-0.052175205
241	0x3d8c96f0	0.068647265
242	0xbdc4eed5	-0.09615866
243	0xbdd9ba74	-0.10631266
244	0xbdcacc2a	-0.099022225
245	0x3c60d67f	0.013723015
246	0xbcddb3b8	-0.027063236
247	0xbda7ffb2	-0.08203067
248	0xbbfa7cfa	-0.007644293
249	0xbd0c1ae1	-0.03420532
250	0x3d7c6c04	0.06162645
251	0x3d01f2b4	0.0317256
252	0xbd6d8194	-0.057984903
253	0x3bedf6e4	0.0072620977
254	0xbd1d07c0	-0.03833747
255	0x3cd766ef	0.0262942

conv2.bias f4 [16]
0	0xbcdf47c9	-0.02725591
1	0x3c3acedb	0.011401857
2	0xbc7eee9d	-0.0155598195
3	0xbd12d0bb	-0.035843592
4	0xbce0c596	-0.027437966
5	0x3cccab8f	0.02498415
6	0xbd92e171	-0.07171906
7	0xbb06c298	-0.0020562764
8	0xbdda88f3	-0.10670652
9	0xbb4d29bc	-0.0031305393
10	0xbcb1d3de	-0.021707471
11	0x3bf9c40c	0.0076222476
12	0xbd49f5ce	-0.049306683
13	0xbcdf989a	-0.027294446
14	0x3d18f68c	0.0373445
15	0xbd52eca8	-0.051495224

conv3.weight f4 [32, 16, 3, 3]
0	0x3c153354	0.009106476
1	0x3d1148f8	0.03546998
2	0xbd0f65c4	-0.03500916
3	0xbd94d10c	-0.07266435
4	0xbcf1bac6	-0.029508006
5	0x3b2f0f47	0.0026711987
6	0xbd592bc4	-0.053020254
7	0xbc94883b	-0.018131366
8	0x3d7db1a3	0.061936986
9	0x3da764c1	0.08173514
10	0xbd57675b	-0.0525888
11	0xbd925e17	-0.071468525
12	0x3e25b5c3	0.16182618
13	0xbcb6746f	-0.022272317
14	0xbc956e5c	-0.0182411
15	0x3cb40f7e	0.021980044
16	0xbd84683e	-0.06465195
17	0x3dfa5c5a	0.12224646
18	0x3d0c8c5d	0.03431355
19	0xbcb82385	-0.022477875
20	0x3d766278	0.0601525
21	0xbc7bd815	-0.015371342
22	0xbd3b000d	-0.045654345
23	0x3cec0bf9	0.028814303
24	0xbd751269	-0.05983201
25	0x3da1d6ed	0.07902322
26	0x3e150df8	0.1455611
27	0x3cfaa739	0.030597316
28	0xbbe757bd	-0.0070600198
29	0xbd299bb9	-0.041408274
30	0x3d35865d	0.044317592
31	0xbce283ac	-0.027650677
32	0xbc433fa0	-0.011917025
33	0xbd52f9f3	-0.0515079
34	0x3d3187c7	0.043342378
35	0xbc405fb4	-0.011741567
36	0x3df2a625	0.11848096
37	0xbbe8b2f3	-0.0071014105
38	0xbdd8c780	-0.105849266
39	0x3c0362a4	0.008019123
40	0xbd17b9b4	-0.037042335
41	0xbe3f6a2d	-0.18692847
42	0x3d83ddaa	0.064387634
43	0xbc5397b5	-0.012914588
44	0xbe17754a	-0.14790836
45	0xbd559aa3	-0.052149426
46	0xbdf0444b	-0.11731776
47	0xbd1849a0	-0.03717959
48	0xbccc8b07	-0.024968637
49	0xbe030935	-0.12796481
50	0x3cdc2dd5	0.026877323
51	0xbdf03cd7	-0.11730354
52	0xbdcc9b5c	-0.0999057
53	0x3e143c96	0.14476237
54	0x3db3b29b	0.08774301
55	0xbcf4e288	-0.029893175
56	0xbc9578af	-0.018246023
57	0x3d78c2ca	0.06073264
58	0x3d1429aa	0.036172546
59	0x3e043f49	0.12914766
60	0xbd3586eb	-0.04431812
61	0xbc80549b	-0.015665343
62	0x3d55c7b6	0.052192412
63	0x3da52ae8	0.08064824
64	0xbd85f446	-0.06540732
65	0x3d5ce828	0.05393234
66	0x3c40bf5a	0.011764372
67	0xbd98472b	-0.07435449
68	0x3d7ec8dd	0.062203277
69	0xbd0ecff9	-0.034866307
70	0xbdc1e6c1	-0.09467841
71	0x3d703d2f	0.0586521
72	0x3db1452d	0.08655772
73	0xbc1f435b	-0.009720649
74	0x3c55641b	0.013024355
75	0x3b32303d	0.0027189397
76	0xbd363dde	-0.044492595
77	0x3d2382f0	0.039919794
78	0x3c48c79f	0.012254625
79	0xbd9d1af8	-0.076711595
80	0x3d17f24b	0.037096303
81	0x3d90c3c3	0.070685886
82	0xbde73929	-0.11290199
83	0xbdb04f46	-0.0860887
84	0xbd49c94d	-0.04926424
85	0xbda351d6	-0.07974593
86	0x3dc85989	0.097827025
87	0xbdcb788c	-0.09935102
88	0xba2af011	-0.0006520758
89	0x3db642af	0.08899438
90	0x3e25fd5d	0.16209932
91	0xbce9945e	-0.02851313
92	0x3d0925bf	0.033483263
93	0x3ccbd4aa	0.02488168
94	0xbbf13813	-0.007361421
95	0xbb44be3c	-0.0030020615
96	0xbd9ca711	-0.07649053
97	0xbb14d8f2	-0.0022712317
98	0xbd871d94	-0.065974385
99	0xbd2f4fba	-0.042800643
100	0xbbe5c30b	-0.0070117763
101	0xbd89fcac	-0.067376465
102	0xbc6def9f	-0.014522462
103	0x3cea8880	0.028629541
104	0xbd8dd0b3	-0.06924572
105	0xbdb78116	-0.08960168
106	0x3d0791cb	0.033098023
107	0xbd9489de	-0.072528586
108	0xbc9db21f	-0.019249974
109	0x3b4fcf0f	0.003170911
110	0xbdb260d7	-0.08709877
111	0xbd7324fb	-0.05936144
112	0xbd963382	-0.07334043
113	0x3d88dbe7	0.06682568
114	0xbda6c8b4	-0.0814375
115	0xbd30ac7d	-0.043133248
116	0x3c8475fe	0.016169544
117	0x3d48426c	0.04889147
118	0x3c1402c5	0.009033863
119	0x3c992f90	0.018699437
120	0x3d0f7e59	0.035032604
121	0x3b911cd6	0.0044284863
122	0x3de7e491	0.113228925
123	0x3d9b523b	0.075840436
124	0xbd0bfe76	-0.03417822
125	0x3d0bd7cc	0.034141347
126	0x3c13341a	0.00898459
127	0x3dc6cd83	0.09707167
128	0x3ceb86bc	0.02875077
129	0xbda6f2ba	-0.08151765
130	0x3d5baaf5	0.053629834
131	0x3d5abb8a	0.053401507
132	0xbd883a03	-0.0665169
133	0x3bf57c47	0.0074916217
134	0xbdb4539a	-0.08805008
135	0xbd1921ca	-0.03738574
136	0x3c4629fb	0.01209497
137	0x3d8278e6	0.06370716
138	0xbd7e51a3	-0.062089574
139	0xbd82d368	-0.06387979
140	0xbda3c47c	-0.07996461
141	0xbd885461	-0.06656719
142	0x3d5bc878	0.05365798
143	0x3d8c0504	0.06836894
144	0xbd61830c	-0.055056617
145	0xbd9046f7	-0.070447855
146	0x3e1060b4	0.1409939
147	0x3d0237ab	0.03179137
148	0xbdba8fe6	-0.09109478
149	0xbbced2de	-0.0063117584
150	0x3b961e00	0.004581213
151	0x3bba2dac	0.005681714
152	0xbc8cfa1c	-0.017209105
153	0x3d81e5df	0.063426726
154	0xbbb580ec	-0.0055390503
155	0xbcbceffc	-0.023063652
156	0x3dd86cbc	0.105676144
157	0x3d07d17e	0.03315877
158	0x3d68031b	0.056643587
159	0xbc84fc24	-0.016233511
160	0xbccfea37	-0.025380237
161	0x3d992b8a	0.074790075
162	0xbce373cc	-0.027765177
163	0xbdfb6811	-0.122757085
164	0x3d9d3430	0.076759696
165	0xbd20a979	-0.03922412
166	0xbd6d09b0	-0.057870567
167	0xbdc5f20c	-0.096653074
168	0x3d7b0b18	0.061289877
169	0x3d0a25a4	0.033727303
170	0x3d0c3e64	0.034239188
171	0xbdbebb44	-0.09313062
172	0x3bc734c3	0.0060792877
173	0xbcd27ee0	-0.025695264
174	0xbc2420d0	-0.010017589
175	0x3dcc32b7	0.099706106
176	0xbc4add90	-0.012381926
177	0xbbff36d6	-0.0077885194
178	0x3d594c49	0.053051267
179	0xbc6a51da	-0.0143017415
180	0xbd5fff38	-0.054686755
181	0x3c625ad5	0.013815601
182	0xbe1d4e9c	-0.15362018
183	0xbdaeb691	-0.085309155
184	0x3caa5b9e	0.02079564
185	0xbdcc8929	-0.09987099
186	0x3c8814d9	0.016611503
187	0xbd612186	-0.05496361
188	0xbd098749	-0.033576284
189	0x3d2c89f2	0.042123742
190	0xbc9798c3	-0.01850546
191	0x3de47499	0.11155052
192	0x3dc9e573	0.09858217
193	0xbdd21641	-0.10258151
194	0xbe16e506	-0.14735803
195	0x3c19bdad	0.009383601
196	0x3df504ad	0.119637825
197	0xbe01328c	-0.12616938
198	0xbbea8388	-0.007156793
199	0xbccffaa6	-0.025388073
200	0xbb829e96	-0.00398619
201	0x3dceb830	0.10093725
202	0x3cc78240	0.0243541
203	0xbca911ab	-0.020638308
204	0x3d96945a	0.073525146
205	0x3e11476d	0.14187403
206	0x3da749d5	0.08168379
207	0xbb82137c	-0.003969608
208	0xbe156cf9	-0.14592351
209	0xbc9f755c	-0.019465141
210	0x3d73f95f	0.05956399
211	0xbd563518	-0.052296728
212	0xbdf8f659	-0.12156362
213	0x3dd0b0fc	0.10190007
214	0x3d35f484	0.04442264
215	0xbd9f6655	-0.0778319
216	0x3ce04a1b	0.027379086
217	0xbd0c63fc	-0.03427504
218	0x3d9a0175	0.07519809
219	0x3d0e1f4a	0.03469781
220	0xbdca8896	-0.09889333
221	0xbcb8214c	-0.022476815
222	0x3d9d6953	0.076861046
223	0x3ce23859	0.02761476
224	0x3aa38544	0.0012475629
225	0xbc910950	-0.017704636
226	0x3b1e83e4	0.00241875
227	0x3d336672	0.04379887
228	0xbd7b07cc	-0.061286733
229	0xbdbc2938	-0.09187549
230	0xbc4833db	-0.012219395
231	0x3df45ae9	0.11931402
232	0x3da2f33a	0.07956548
233	0xbd3d0f80	-0.04615736
234	0x3d6b53c1	0.05745292
235	0x3cd6800e	0.026184108
236	0xbe29578a	-0.165373
237	0xbdbaba69	-0.09117586
238	0x3ddadb06	0.10686307
239	0x3d253232	0.040331073
240	0xbc2baadd	-0.010477749
241	0x3c53ec2b	0.012934725
242	0xbd7a3317	-0.06108388
243	0xbd67fe95	-0.056639273
244	0x3d70fde8	0.058835894
245	0x3d1f708a	0.038925685
246	0xbd22a766	-0.039710425
247	0x3d3e44f8	0.046452492
248	0xbd1d8f02	-0.03846646
249	0x3d21f52f	0.039540466
250	0xbd1132fd	-0.035449017
251	0x3b7824ef	0.003786381
252	0xbc809309	-0.015695112
253	0xbd070e9a	-0.03297291
254	0x3dbb2831	0.09138525
255	0x3dc02e36	0.09383814

conv3.bias f4 [32]
0	0xbe0152d0	-0.12629247
1	0xbd9d1e13	-0.07671752
2	0x3d963029	0.073334046
3	0xbdb196b6	-0.08671324
4	0xbdc8d138	-0.0980553
5	0xbc14085d	-0.009035197
6	0x3d4f0110	0.050538123
7	0xbdb8797d	-0.09007547
8	0x3caa110d	0.020760084
9	0xbca34042	-0.019928101
10	0xbd8e0c16	-0.06935899
11	0xbe2e6c29	-0.17033447
12	0xbd6e75b2	-0.05821771
13	0xbd2fcede	-0.042921893
14	0xbd39b0d4	-0.045334652
15	0x3bc0dbc6	0.005885574
16	0xbe017eff	-0.12646101
17	0xbe259c33	-0.16172867
18	0xbbd4598c	-0.0064804014
19	0xbde20482	-0.11036016
20	0xbc84dd99	-0.016218947
21	0xbe3597f1	-0.17733742
22	0xbc7c2f8f	-0.015392198
23	0xbdff212a	-0.124574974
24	0xbdb7bf6a	-0.08972056
25	0xbd429333	-0.04750366
26	0x3d1972f8	0.03746316
27	0xbdb5a60b	-0.08869561
28	0xbd46ad4c	-0.048505113
29	0xbd5733cb	-0.052539628
30	0xbd7ec44c	-0.062198922
31	0xbdf900bd	-0.12158344

conv4.weight f4 [64, 32, 5, 5]
0	0xbdac1c6e	-0.0840386
1	0xbc48375a	-0.012220228
2	0x3ddd143e	0.107948765
3	0xbaaca834	-0.0013172687
4	0xbd377c53	-0.0447963
5	0x3defb9f1	0.117053874
6	0x3c510f84	0.012760047
7	0xbb973620	-0.0046146065
8	0xbd6575ea	-0.056020655
9	0xbc765d0c	-0.015036833
10	0x3dac4f51	0.08413566
11	0xbc7c995c	-0.015417423
12	0xbded79e3	-0.11595514
13	0xbd0759ab	-0.0330445
14	0x3d1a1bc1	0.037624124
15	0x3d7d78c4	0.06188275
16	0x3c797b74	0.015227187
17	0xbda78a3e	-0.081806645
18	0xbda1ba4c	-0.078968614
19	0x3dab2b80	0.08357906
20	0x3dd51a63	0.104054235
21	0xbccf99d5	-0.025341908
22	0x3b9f4d90	0.004861541
23	0xbd30c67c	-0.04315804
24	0x3de0dbbe	0.109794125
25	0xbd17fa27	-0.0371038
26	0x3cfab20f	0.030602483
27	0xbcbc99e1	-0.023022594
28	0x3d230232	0.039797015
29	0x3c58b959	0.013227784
30	0x3d3c5aaa	0.0459849
31	0x3a79902a	0.00095200783
32	0x3d38a3cf	0.045078095
33	0x3c91d667	0.01780243
34	0x3cadc6fb	0.021213045
35	0x3c05a727	0.008157528
36	0xbd3d5165	-0.046220202
37	0xbcd50030	-0.026001066
38	0xbba659f8	-0.005076643
39	0xbd9d13f1	-0.07669819
40	0xbb2ec28c	-0.0026666252
41	0x3d4a0452	0.049320526
42	0xbca3c7f5	-0.019992808
43	0x3d6ec77b	0.05829571
44	0xbd504098	-0.05084285
45	0xbd2f161f	-0.042745706
46	0x3db60b90	0.08888924
47	0x3cd55d28	0.026045397
48	0x3d2c923d	0.04213165
49	0xbd988e67	-0.07449036
50	0x3cd0bdf4	0.025481202
51	0x3d33ed38	0.0439274
52	0x3d95b752	0.07310356
53	0x3d8e8f48	0.069609225
54	0xbd292b8c	-0.041301295
55	0xbd0e034a	-0.034671105
56	0x3d172aaf	0.03690594
57	0x3da568d0	0.08076632
58	0x3d233d0d	0.039853144
59	0x3ccebb09	0.02523567
60	0xbb0900c4	-0.0020904997
61	0x3d00db11	0.031458918
62	0x3df0e35a	0.11762114
63	0x3d1315b4	0.03590937
64	0xbcfd5ec3	-0.030928975
65	0x3c571a1e	0.013128785
66	0x3d90530f	0.07047092
67	0x3d8f4415	0.069954075
68	0xbdf2c49c	-0.118539065
69	0xbdda1746	-0.1064897
70	0x3ce51839	0.027965652
71	0x3cb5b2e6	0.022180032
72	0xbd99a6f3	-0.07502546
73	0xbde8e747	-0.11372238
74	0xbda2e2a0	-0.079533815
75	0x3c56030b	0.013062249
76	0x3d27785c	0.040886268
77	0x3df08414	0.11743942
78	0x3da5d4a6	0.080972
79	0xbb94a6fd	-0.004536508
80	0xbdd4c05f	-0.103882544
81	0xbccc5f3d	-0.024947757
82	0x3caffd3d	0.021483058
83	0x3dade992	0.084918156
84	0x3d41b588	0.047292262
85	0x395aef4f	0.0002087925
86	0x3d02c02f	0.03192156
87	0x3ce4cffa	0.027931202
88	0xbd2aaf2c	-0.041670963
89	0xbcc99451	-0.024606856
90	0xbd96dcc2	-0.07366325
91	0xbbdfc428	-0.0068288036
92	0x3d8f10a3	0.06985595
93	0xbd61b03b	-0.055099707
94	0xbdc7535e	-0.09732698
95	0x3d17f70e	0.037100844
96	0x3d81ce6d	0.06338201
97	0xbd0293e2	-0.031879313
98	0xbda6dd18	-0.08147639
99	0xbd955b6c	-0.07292828
100	0x3c27b26d	0.010235411
101	0x3cedd8b1	0.02903399
102	0x3dc449a2	0.09584357
103	0x3cfe69b2	0.031056259
104	0x3c9c9304	0.019113071
105	0xbd54a990	-0.05191952
106	0x3bf6813e	0.007522731
107	0x3da06e7c	0.07833573
108	0xbc49704a	-0.012294838
109	0xbc7d2c22	-0.015452417
110	0xbcffa6be	-0.031207439
111	0x3d1170d7	0.035508003
112	0xbbbffe1a	-0.0058591487
113	0xbdc845b7	-0.09778922
114	0xbbd4f980	-0.0064994693
115	0x3cadeadb	0.021230152
116	0xbbb9e4a0	-0.005673006
117	0xbd59d2da	-0.0531796
118	0xbdca4196	-0.09875791
119	0x3d3dab58	0.046305984
120	0x3dccba6b	0.09996494
121	0x3cc5b330	0.024133295
122	0xbcc67109	-0.024223821
123	0xbd74640f	-0.059665736
124	0x3da2cbd8	0.07949036
125	0x3b83180c	0.0040006693
126	0x3daa1cfe	0.08306311
127	0x3d7cdafe	0.061732285
128	0xbd139cd3	-0.03603823
129	0xbd108744	-0.03528525
130	0xbdd3ff73	-0.103514574
131	0xbb988484	-0.004654469
132	0x3cdacea9	0.026709871
133	0x3d200727	0.03906932
134	0xbd2adebd	-0.041716326
135	0xbd096dd4	-0.033552006
136	0x3d8a6b5d	0.06758759
137	0x3db802a8	0.08984882
138	0x3c846d22	0.01616532
139	0xbd17c53f	-0.037053343
140	0xbc33598e	-0.0109466445
141	0x3d91d428	0.07120544
142	0x3d817aa7	0.06322222
143	0xbda9a920	-0.08284211
144	0xbcc9bedd	-0.024627144
145	0xbda23f4c	-0.07922229
146	0x3dc77b36	0.097402975
147	0xbcddd7e2	-0.02708048
148	0xbdec25eb	-0.1153067
149	0xbd0137ea	-0.031547464
150	0x3c18db6a	0.009329656
151	0x3dfae66e	0.12250982
152	0x3ca25f4b	0.01982083
153	0xbcfad521	-0.030619206
154	0xbce98353	-0.028505003
155	0xbb95cfa1	-0.0045718704
156	0x3c36b6b6	0.01115196
157	0x38c33fa3	9.310178e-05
158	0x3c5bbcc8	0.013411708
159	0x3ca9d3b2	0.020730827
160	0xbdcd75a9	-0.100322075
161	0xbaa489d5	-0.0012553284
162	0x3d84d2da	0.06485529
163	0x3cb7ef77	0.022453053
164	0xbb41589b	-0.0029502276
165	0xbcf05246	-0.029336106
166	0x3d9009f0	0.070331454
167	0x3d8df636	0.06931727
168	0xbdcf6e35	-0.10128442
169	0xbd646d87	-0.055768516
170	0xbd0a9357	-0.03383192
171	0xbc86e6f6	-0.016467553
172	0xbd20f53f	-0.039296385
173	0xbe2211a1	-0.15827037
174	0xbe0b6052	-0.13610962
175	0xbc8a9aeb	-0.016919574
176	0x3c65ea65	0.014032935
177	0x3cdc498d	0.02689054
178	0x3d02fb74	0.031978086
179	0xbc92e00f	-0.017929105
180	0x3d1811f2	0.03712649
181	0x3cde66e4	0.027148671
182	0x3d45902c	0.048233196
183	0x3dafc819	0.085830875
184	0x3da6d5c8	0.08146244
185	0xbd58dea5	-0.052946705
186	0xbd9ebb79	-0.07750601
187	0xbb94341d	-0.004522814
188	0xbc130e38	-0.008975558
189	0x3ddc24fa	0.1074924
190	0x3d91547c	0.07096192
191	0x3cdd5a26	0.027020525
192	0xbd6e82ec	-0.058230326
193	0xbd26b3f1	-0.04069895
194	0x3d4c2490	0.049839556
195	0xbb1f5edc	-0.0024318015
196	0x3cb76fba	0.022392143
197	0x3d7aa037	0.06118795
198	0x3d23529a	0.039873697
199	0xbcf064c5	-0.029344926
200	0xbd02d07f	-0.03193712
201	0x3dc51c6c	0.09624562
202	0x3e2cadc5	0.16863163
203	0xbd32e137	-0.043671813
204	0xbd2f3808	-0.042778045
205	0xbdc0f184	-0.094210654
206	0x3d918dd9	0.071071334
207	0x3d854ea3	0.065091394
208	0xbca3c88a	-0.019993085
209	0x3d813f43	0.06310894
210	0x3d38d59c	0.04512559
211	0x3b853360	0.0040649623
212	0x3c9cbabd	0.019132013
213	0xbd7ad939	-0.061242316
214	0xbd1a4485	-0.037663
215	0xbd7d92b9	-0.061907504
216	0x3d39cc3c	0.04536079
217	0xbc8c5c62	-0.017133895
218	0xbe117956	-0.14206442
219	0xbd0e5ac0	-0.034754515
220	0x3d12e155	0.035859425
221	0x3d36eb4e	0.044657998
222	0x3cedd2f8	0.029031262
223	0xbe07437e	-0.1320934
224	0x3c340bac	0.010989111
225	0x3cde5f2f	0.027144996
226	0x3d1534aa	0.036427177
227	0x3c9ebd44	0.019377358
228	0x3d1137be	0.03545355
229	0xbd5cd8ea	-0.053917803
230	0xbda5e9df	-0.08101248
231	0x3d4fc2a7	0.050722744
232	0x3dcb92c3	0.09940102
233	0x3d872202	0.06598283
234	0xbc00ed63	-0.007869097
235	0xbd9b6349	-0.075872965
236	0x3c7e1809	0.01550866
237	0x3d4b762f	0.049673256
238	0xbcb894bd	-0.022531861
239	0xbd6c97ce	-0.05776196
240	0x3c1a06d3	0.009401041
241	0x3cdedab4	0.027203895
242	0x3c050c6c	0.008120637
243	0xbdc038ca	-0.09385832
244	0xbe018887	-0.12649737
245	0x3cd35912	0.025799308
246	0x3d60d855	0.05489381
247	0xbcdc14de	-0.026865419
248	0xbdfc4dae	-0.12319504
249	0xbe105b08	-0.14097226
250	0xbcde351a	-0.02712493
251	0x3d927f5b	0.071531974
252	0x3d936016	0.07196061
253	0x3b800de5	0.0039079064
254	0xbd2da03c	-0.04238914
255	0xbd0a74c9	-0.03380278

conv4.bias f4 [64]
0	0xbc4cf1cf	-0.012508824
1	0xbd00f777	-0.031486
2	0xbc86f7b3	-0.016475534
3	0x3b3ce461	0.0028822648
4	0x3b8b3903	0.0042487397
5	0x3d05520e	0.032548957
6	0xbca7c1fc	-0.020478241
7	0xbc2dedff	-0.010615825
8	0xbcb7e4a7	-0.022447897
9	0x3c70af26	0.014690196
10	0x3cbac59a	0.022799302
11	0xbd902d0f	-0.07039844
12	0xbcf0436c	-0.029329024
13	0x3b6ad352	0.0035831523
14	0xbd0d411f	-0.034485932
15	0xbbe62cd5	-0.0070243874
16	0xbcf5fcd9	-0.030027794
17	0x3cac9e0f	0.021071462
18	0x3ccf581d	0.02531057
19	0xbcf0bac0	-0.029385924
20	0x3d4790ba	0.048722006
21	0xbcf0d6a0	-0.029399216
22	0xbd9300a1	-0.07177854
23	0x3caaaef7	0.020835383
24	0xbd41fce5	-0.04736032
25	0x3c7f24be	0.015572725
26	0x3d15467b	0.03644417
27	0xbc7112d7	-0.014713964
28	0xbc8dfa54	-0.01733128
29	0xbd065803	-0.03279878
30	0xbbed86c6	-0.0072487323
31	0xbd257c43	-0.04040171
32	0xbd53e867	-0.051735308
33	0xbd9068a9	-0.07051212
34	0xbbabcb49	-0.0052427393
35	0x3ab9f1f4	0.0014186488
36	0xbc532b17	-0.012888691
37	0xbca8a9d5	-0.020588795
38	0xbdb3f521	-0.08786989
39	0xbcab6180	-0.020920515
40	0xbd22e4c0	-0.039768934
41	0x3be5b6f1	0.0070103337
42	0xbbb49a50	-0.0055115595
43	0xbc1dd33e	-0.009632884
44	0x3c734aed	0.014849407
45	0xbcd7fb63	-0.026364988
46	0xbd89f5dc	-0.06736347
47	0x3cb27177	0.02178262
48	0x3ca02eeb	0.019553622
49	0xbd93def1	-0.07220257
50	0xbb92f66d	-0.0044849426
51	0xbad93c09	-0.0016573678
52	0xbd3a6c8e	-0.045513682
53	0xbd76a790	-0.060218394
54	0xbbf4daa0	-0.007472351
55	0xbccc7a9b	-0.024960807
56	0xbd2c6817	-0.042091455
57	0xbcf3b4f2	-0.029749367
58	0xbc632c88	-0.013865598
59	0xbc6d121c	-0.01446965
60	0xbcd30e2d	-0.025763595
61	0x3c18e90b	0.0093329055
62	0x3c29ef10	0.010371938
63	0xbd36fb12	-0.044673033

fc1.weight f4 [124, 64]
0	0x3e70a5c9	0.23500742
1	0x3bfb62b1	0.007671677
2	0x3dd2909c	0.10281488
3	0x3db7033a	0.08936162
4	0x3e27505f	0.16339253
5	0xbab37417	-0.0013691214
6	0xbe4296a0	-0.19002771
7	0x3dbe374f	0.09287893
8	0x3cb406da	0.021975923
9	0xbdaaa326	-0.08331899
10	0x3dba6fa8	0.09103328
11	0xbd24a895	-0.040199835
12	0xbded4dcf	-0.115871064
13	0x3d35699b	0.044290166
14	0xbcf4857d	-0.029848808
15	0x3c41b5af	0.011823102
16	0x3cb25d1b	0.021772912
17	0x3d4078a9	0.04699007
18	0xbcce129f	-0.025155364
19	0x3e0dfd84	0.1386624
20	0x3ce2e1d5	0.027695576
21	0x3dc58665	0.09644774
22	0x3d6af7b8	0.05736515
23	0x3e0507ad	0.1299121
24	0x3de78957	0.11305492
25	0x3d6da5ee	0.05801957
26	0xbe49a019	-0.19689979
27	0xbe06507a	-0.13116637
28	0x3d96d8ca	0.07365568
29	0x3e1e3532	0.1544998
30	0x3d0cec58	0.034405082
31	0xbd83f705	-0.064435996
32	0x3d9d800b	0.07690438
33	0xbdf01f7c	-0.11724755
34	0xbe6326e0	-0.22182798
35	0xbe3044da	-0.17213765
36	0xbd94be36	-0.07262842
37	0x3d25ee8e	0.040510707
38	0xbd18b2f6	-0.037280045
39	0xbe2a32d3	-0.1662095
40	0x3d00c84d	0.03144102
41	0x3d9b0ac5	0.075704135
42	0x3d0b1af7	0.033961263
43	0x3da081ac	0.07837233
44	0xbe306b45	-0.1722842
45	0x3e05cbdb	0.13066046
46	0x3e237dff	0.15966032
47	0xbd244e80	-0.040113926
48	0x3c6d978c	0.014501464
49	0xbe28823f	-0.16455935
50	0x3ccbbce8	0.024870351
51	0x3dc19f45	0.094542064
52	0xbde74907	-0.11293226
53	0x3dd1e79f	0.10249256
54	0x3d12152c	0.035664722
55	0xbe43576b	-0.19076316
56	0xbdb77c0a	-0.089592054
57	0xbcd67e7b	-0.026183357
58	0x3b8940c5	0.0041886293
59	0xbddf9e9a	-0.10918923
60	0x3dbbd4ac	0.09171423
61	0x3db975ae	0.09055649
62	0x3e12d012	0.14337185
63	0xbe4ab62a	-0.19796053
64	0x3e002423	0.12513785
65	0xbd88f705	-0.0668774
66	0xbded30bf	-0.11581563
67	0xbd8f4ea6	-0.06997423
68	0x3cda574e	0.026652958
69	0xbbe62f4a	-0.0070246803
70	0x3c093a53	0.008375722
71	0xbcfa4820	-0.03055197
72	0xbe78561e	-0.24251601
73	0xbd82e9de	-0.06392263
74	0x3e2532b2	0.1613262
75	0x3c0020ef	0.007820352
76	0x3b474275	0.0030404602
77	0xbdcc751b	-0.099832736
78	0xbda65757	-0.081221275
79	0x3d964acc	0.07338485
80	0x3d5b9a3f	0.053613897
81	0x3d25a3c2	0.040439375
82	0xbe00bc7a	-0.12571898
83	0xbe2188c0	-0.15774822
84	0xbc43f7f4	-0.011960972
85	0x3d145544	0.036214128
86	0xbe6e9205	-0.2329789
87	0xbb690bd2	-0.0035560024
88	0x3c712e5f	0.014720528
89	0x3db68909	0.08912856
90	0xbcd920cc	-0.026504897
91	0xbe438a78	-0.1909579
92	0xbe12a0f8	-0.14319217
93	0x3e02adac	0.12761563
94	0xbe033153	-0.12811784
95	0xbd031fd8	-0.03201279
96	0xbe1dcbf6	-0.15409836
97	0x3d5771bf	0.05259871
98	0xbcfbe14c	-0.030747078
99	0xbc8f5121	-0.01749474
100	0x3e19fe72	0.1503847
101	0xbc379f8a	-0.011207471
102	0xbdcc9d2b	-0.09990915
103	0x3c78f573	0.015195238
104	0xbb666a60	-0.003515862
105	0xbda4f5c3	-0.08054688
106	0xbbb11ccf	-0.0054050456
107	0xbe09ace3	-0.13444857
108	0xbe1566b9	-0.14589967
109	0xbdfd2927	-0.12361365
110	0xbd401625	-0.04689612
111	0x3d3a8bee	0.045543604
112	0xbdfb97ee	-0.12284838
113	0x3dcae40e	0.09906779
114	0x3d04e790	0.032447398
115	0xbd808935	-0.0627617
116	0x3ddaf51a	0.10691281
117	0x3dbc4b1c	0.091940135
118	0x3dc4a23b	0.096012555
119	0xbc09acb5	-0.008402993
120	0xbdd641a8	-0.10461742
121	0x3d92739e	0.071509585
122	0xbd22fe99	-0.039793584
123	0xbd7ed486	-0.062214397
124	0x3d9c2cc2	0.076257244
125	0xbdb46270	-0.08807838
126	0x3c80aa80	0.0157063
127	0xbe2351d7	-0.15949188
128	0x3e17b5e9	0.14815487
129	0xbd932df9	-0.07186503
130	0xbda971e2	-0.082736745
131	0x3dc7ae6f	0.097500674
132	0x3d84c891	0.064835675
133	0xbdbf2246	-0.09332709
134	0xbde36ced	-0.1110476
135	0xbd4a6675	-0.049414117
136	0xbe171f62	-0.14758065
137	0x3d0e0acf	0.034678277
138	0xbafc903e	-0.0019269062
139	0xbe0473ab	-0.12934749
140	0xbe0ccae2	-0.13749269
141	0xbde9794a	-0.11400087
142	0xbd02825d	-0.031862605
143	0xbdd7b5be	-0.105327114
144	0x3cb55d79	0.022139298
145	0x3cccd7a9	0.025005179
146	0x3e26108b	0.16217248
147	0x3dbddaec	0.09270272
148	0xbb80a918	-0.0039264075
149	0x3cd30fda	0.025764395
150	0xbdcbe7ab	-0.099562965
151	0x3e3c886a	0.18411413
152	0xbd8addf2	-0.06780614
153	0xbe640098	-0.22265851
154	0xbdefd215	-0.11709992
155	0xbe424c49	-0.18974413
156	0x3e0c5bbb	0.13706867
157	0x3d873919	0.066026874
158	0xbd5114f5	-0.051045377
159	0xbdf5eb4b	-0.12007769
160	0xbc76b310	-0.01505734
161	0xbd2570ec	-0.040390894
162	0xbdbff848	-0.09373528
163	0xbe3a017e	-0.18164632
164	0x3e078621	0.1323476
165	0x3d4e6943	0.050393354
166	0xbcbb4ea1	-0.022864642
167	0x3d359adb	0.044337135
168	0xbd9d9b0a	-0.07695587
169	0xbd79e1f1	-0.06100649
170	0x3da253f0	0.07926166
171	0x3d0ebf38	0.03485033
172	0xbd425fb9	-0.04745457
173	0x3dc651db	0.096835814
174	0xbe0e27c2	-0.13882354
175	0x3d517bba	0.051143385
176	0x3e2d97d8	0.16952455
177	0xbd8e7fb1	-0.06957949
178	0xbd69347e	-0.056934826
179	0x3dc188c7	0.09449916
180	0x3d1fc1b4	0.03900309
181	0x3d606782	0.054786213
182	0xbd4cdf0c	-0.0500174
183	0xbe26c124	-0.16284615
184	0xbd85f46e	-0.06540762
185	0x3d577ad1	0.05260736
186	0x3dd25b12	0.102712765
187	0x3d01f91f	0.03173172
188	0xbdde1cfe	-0.108453736
189	0xbdd400c1	-0.10351706
190	0x3ddd523a	0.10806699
191	0x3d2f5836	0.042808734
192	0x3e2cf029	0.16888489
193	0x3b969872	0.0045958096
194	0xbcece1ba	-0.028916229
195	0x3d34f053	0.044174504
196	0x3da36cfc	0.079797715
197	0xbc5a554d	-0.013326001
198	0x3dfe1614	0.12406555
199	0xbd9bba32	-0.07603873
200	0xbd4c5a56	-0.04989084
201	0x3d0700c6	0.032959722
202	0xbe1df161	-0.1542411
203	0x3e32901d	0.17437787
204	0xbde93cf2	-0.113885775
205	0x3d9a9072	0.07547082
206	0x3e040d94	0.12895805
207	0xbdb6504f	-0.089020364
208	0xbd51f405	-0.051258106
209	0x3d4be0be	0.049774878
210	0xbb309fe7	-0.0026950778
211	0x3d84e3f1	0.06488789
212	0x3c44231f	0.011971264
213	0x3d97623a	0.07391782
214	0xbde01870	-0.10942161
215	0xbcd63088	-0.026146188
216	0xbd11f826	-0.035637043
217	0xbe5241f0	-0.20532966
218	0xbddb90c8	-0.10720974
219	0xbc6687b7	-0.014070443
220	0x3dee8336	0.1164612
221	0x3e355b7e	0.17710683
222	0x3ce5b4d7	0.028040333
223	0xbdfa16de	-0.12211393
224	0x3dae78c2	0.085191265
225	0x3e303f6e	0.17211697
226	0xbcbbd89f	-0.022930441
227	0xbe4e7ac8	-0.20164025
228	0x3c3313d4	0.01093002
229	0x3d632b0d	0.05546098
230	0x3cc6d770	0.02427265
231	0x3dcd22cf	0.10016405
232	0x3dafd353	0.08585229
233	0xbd89f44e	-0.067360505
234	0x3c3b037d	0.011414406
235	0xbd7729a1	-0.060342435
236	0xbe270e76	-0.1631411
237	0x3d149045	0.0362704
238	0x3ca08566	0.01959486
239	0x3d21d39c	0.039508447
240	0x3e0ac129	0.13550247
241	0x3dfaeb89	0.12251956
242	0x3dabb4cd	0.083840944
243	0x3d024f5a	0.031813957
244	0x3dc879f7	0.09788888
245	0xbd4719e2	-0.04860867
246	0x3e0c8632	0.13723066
247	0x3e27a11a	0.16370049
248	0xbdf858f1	-0.12126339
249	0xbe286e3f	-0.16448306
250	0xbd7d08ab	-0.061775845
251	0xbe1b50c1	-0.15167524
252	0x3d957bba	0.072989896
253	0x3dd7ab38	0.10530704
254	0x3c064e6f	0.008197411
255	0xbd3b36a3	-0.045706403

fc1.bias f4 [124]
0	0x3d97a0fb	0.074037515
1	0xb994286b	-0.00028258873
2	0x3d92cb5c	0.07167694
3	0xbdb04f90	-0.08608925
4	0xbdc85f24	-0.09783772
5	0x3d4076ef	0.046988424
6	0xbe597cdb	-0.21239035
7	0xbdaf23e9	-0.08551771
8	0x3e032d3f	0.12810229
9	0xbcfac22c	-0.030610166
10	0xbde29a9b	-0.11064645
11	0xbd1345de	-0.035955302
12	0xbd9b05c8	-0.07569462
13	0x3d098ac4	0.033579603
14	0xbe0b62bc	-0.13611883
15	0x3dff55c4	0.1246753
16	0x3dc94970	0.0982846
17	0xbca1dc8c	-0.019758485
18	0xbdf5d14d	-0.120028116
19	0xbce27b4b	-0.027646681
20	0xbd1baf8b	-0.038009208
21	0x3d8754e7	0.06607991
22	0x3d7a3603	0.061086666
23	0xbc310cd3	-0.01080628
24	0xbd94bbae	-0.072623596
25	0xbda11678	-0.07865614
26	0x3d21d789	0.03951219
27	0xbd29faa1	-0.041498784
28	0xbd0c163e	-0.0342009
29	0xbdbd32ab	-0.0923818
30	0xbd93e5c1	-0.072215565
31	0xbdcb9352	-0.099402085
32	0xbd94f6d0	-0.07273638
33	0x3d42387f	0.04741716
34	0xbd862f4a	-0.065519884
35	0x3c9bbd68	0.019011214
36	0x3c1d5aa6	0.009604132
37	0x3d1aa88f	0.037758406
38	0x3cf5c02b	0.02999886
39	0x3d91a075	0.07110683
40	0xbdc72368	-0.0972355
41	0xbd2445b6	-0.040105544
42	0x3da78f8a	0.08181675
43	0xbdc04d01	-0.09389687
44	0xbdf44561	-0.119272955
45	0x3d1d89b8	0.038461417
46	0x3cb1332c	0.021630846
47	0x3dc0f892	0.09422411
48	0x3c89c8d1	0.01681939
49	0x3b09e307	0.002103986
50	0xbddbaff4	-0.1072692
51	0x3da3f34f	0.08005392
52	0x3d70a8ad	0.05875461
53	0xbd696716	-0.056983076
54	0xbdb7724b	-0.089573465
55	0xbd5a1046	-0.053238176
56	0xbc4bf1d1	-0.01244779
57	0x3d425bb8	0.04745075
58	0x39e37489	0.0004338364
59	0xbcc91fd3	-0.024551308
60	0x3cf49e36	0.029860597
61	0xbe090f16	-0.13384661
62	0xbdca603b	-0.09881636
63	0x3d821f51	0.063536294
64	0x3c8f51cd	0.01749506
65	0xbc7bfa63	-0.015379521
66	0xbd4b1adb	-0.04958616
67	0xbda21b42	-0.07915355
68	0xbdf7e783	-0.12104704
69	0x3cfc4578	0.030794844
70	0xbe39dfa2	-0.18151715
71	0xbdc32971	-0.09529389
72	0xba343672	-0.0006874568
73	0xbd3084fa	-0.043095566
74	0x3d47234a	0.04861764
75	0x3d39181a	0.045189
76	0x3d959132	0.073030844
77	0x3d967f47	0.07348495
78	0xbcb631ce	-0.022240546
79	0x3d113a93	0.03545625
80	0x3d1473db	0.0362433
81	0x3d200415	0.039066393
82	0x3d3c3ae4	0.0459546
83	0x3d8c64c2	0.068551555
84	0xbc63fb8c	-0.013914954
85	0xbddd679b	-0.10810777
86	0xbdc055b5	-0.09391347
87	0xbe128353	-0.14307909
88	0xbd4b8008	-0.049682647
89	0xbc973863	-0.018459504
90	0x3c95f943	0.018307334
91	0xbcf0eeb4	-0.029410698
92	0xbd9c40f0	-0.07629573
93	0xbd3bff50	-0.04589778
94	0xbe1761b3	-0.14783363
95	0x3db66b02	0.08907129
96	0x3dfe4c20	0.124168634
97	0xbca188bc	-0.01971852
98	0xbd86858b	-0.0656844
99	0x3c89a049	0.016800063
100	0x3db14c15	0.086570896
101	0x3cea22c6	0.028581034
102	0xbe2ddc92	-0.16978672
103	0x3d9dc43e	0.07703446
104	0x3d8459df	0.06462454
105	0xbd5967ee	-0.05307763
106	0x3cf24b39	0.029576885
107	0xbdf18efc	-0.1179485
108	0xbd71f359	-0.059069965
109	0xbe125fe0	-0.14294386
110	0x3d85e39d	0.065375544
111	0xbe0412aa	-0.12897745
112	0x3d8fa23e	0.07013367
113	0xbdb5f0e8	-0.0888384
114	0x3d9229b7	0.07136863
115	0xbcd87068	-0.026420787
116	0x3dace346	0.084417865
117	0xba67b6cf	-0.0008839191
118	0xbd01593b	-0.031579237
119	0x3c482ac5	0.012217228
120	0xbd326fa5	-0.043563504
121	0x3d962523	0.07331302
122	0xbd2f2a16	-0.042764746
123	0xbcaa9a6a	-0.020825583

fc2.weight f4 [124, 124]
0	0xbe3d2fca	-0.18475261
1	0x3e116a70	0.14200759
2	0xbce215d3	-0.027598297
3	0xbc82df40	-0.015975595
4	0x3d7cc725	0.061713357
5	0x3c232482	0.009957435
6	0x39cc0535	0.00038913792
7	0xbdc70c98	-0.09719199
8	0xbdf5722f	-0.119846694
9	0x3d823c98	0.063592136
10	0xbd1521fe	-0.03640937
11	0xbd603352	-0.054736443
12	0x3d338c25	0.043834824
13	0xbc98b84c	-0.018642567
14	0xba850486	-0.0010148443
15	0xbdaf38e9	-0.085557766
16	0xbdde6e24	-0.108608514
17	0x3d045120	0.03230393
18	0x3c6ff76f	0.014646395
19	0xbd9ad386	-0.07559876
20	0xbd936770	-0.071974635
21	0xbd2de0cc	-0.04245071
22	0xbddbf12c	-0.10739359
23	0xbd20c745	-0.03925254
24	0xbced580a	-0.028972644
25	0xbd4a1bbf	-0.049342867
26	0xbdaf37e0	-0.08555579
27	0x3ce2d8e2	0.027691308
28	0x3cbaa29f	0.022782622
29	0x3d06c038	0.032898158
30	0x3d3a9176	0.04554888
31	0x3d8d1a7a	0.06889816
32	0x3cbf0e51	0.023322256
33	0xbd5bc187	-0.05365136
34	0xbe104f91	-0.14092852
35	0xbb9bbc43	-0.004752667
36	0xbd0531df	-0.032518264
37	0xbd8170a5	-0.06320313
38	0x3da362e3	0.079778455
39	0xbcdc6619	-0.026904153
40	0xbcc7429f	-0.02432376
41	0x39a8201a	0.00032067375
42	0xbb249d7a	-0.0025118277
43	0xbd55001a	-0.05200205
44	0x3e13506d	0.14386149
45	0xbd174526	-0.03693118
46	0x3d098116	0.03357037
47	0xbe2b7c87	-0.16746722
48	0xbbe73459	-0.007055801
49	0x3d191542	0.03737379
50	0x3e1ddd4d	0.15416451
51	0x3d560e2d	0.052259613
52	0xbdcb691a	-0.09932156
53	0xbd9ee801	-0.07759095
54	0x3d345b48	0.044032365
55	0xbc449574	-0.011998523
56	0x3d93a1be	0.07208584
57	0xbc3af791	-0.0114115635
58	0x3d913e8f	0.0709201
59	0x3c78f67e	0.015195487
60	0x3cfe98e4	0.031078763
61	0xbcf8eee3	-0.030387348
62	0xbbd97acc	-0.006636953
63	0x3d5fac75	0.054607827
64	0xbbb08bbc	-0.0053877514
65	0xbd4b0470	-0.04956478
66	0x3d8f21de	0.069888815
67	0xbc887c1a	-0.016660739
68	0x3da6c0b8	0.08142227
69	0xbcfa5e20	-0.03056246
70	0x3d29a8a0	0.04142058
71	0xbdd811cd	-0.1055027
72	0x3d70544d	0.058674145
73	0xbdc9ce1c	-0.09853765
74	0x3dbefb6e	0.093253
75	0x3d3ec9bc	0.046579108
76	0xbc6f24f7	-0.014596215
77	0x3cff8ce5	0.031195113
78	0xbd65e92c	-0.056130573
79	0xbd079053	-0.033096623
80	0xbcfe084b	-0.031009814
81	0x3ccde2c0	0.025132537
82	0x3da37f23	0.07983234
83	0xbd9976be	-0.074933514
84	0xbdaaf7ff	-0.08348083
85	0xbd242c8a	-0.04008154
86	0x3d58e345	0.052951116
87	0xbd8c893a	-0.068621114
88	0xbe684e12	-0.22686031
89	0x3db1848d	0.0866786
90	0xbcc13a54	-0.023587383
91	0xbde26f9c	-0.11056444
92	0xbe173182	-0.1476498
93	0xbd8ba97c	-0.06819436
94	0xbd9b73cf	-0.07590448
95	0xbe0163d7	-0.12635742
96	0x3d437745	0.047721166
97	0xbc3a6182	-0.011375787
98	0x3c48bd33	0.01225214
99	0x3d015937	0.031579223
100	0xbdb61672	-0.08891
101	0x3ceb08c7	0.028690709
102	0x3daff09d	0.08590815
103	0xbe05b1e9	-0.13056149
104	0xbd6de8f4	-0.05808349
105	0xbd263602	-0.04057885
106	0x3cf210ca	0.029549021
107	0x3d11dcbd	0.035610903
108	0x3d917988	0.07103258
109	0xbd7edf12	-0.062224455
110	0x3daf3934	0.085558325
111	0x3d952ba0	0.072837114
112	0xbd9883a0	-0.074469805
113	0xbc9a3515	-0.01882414
114	0xbd8a2d9f	-0.06746983
115	0xbb621231	-0.0034495706
116	0x3db04f01	0.08608819
117	0xbdcf25cd	-0.10114632
118	0xbd221bd2	-0.039577313
119	0xbd62b58a	-0.05534891
120	0x3c7c64a6	0.015404856
121	0x3c4a0e4f	0.012332513
122	0xbe1c9883	-0.15292554
123	0x3d3fa85d	0.046791423
124	0x3ce01a5d	0.027356321
125	0xbda7e2a5	-0.08197526
126	0x3bbcc582	0.0057608495
127	0xbe16e4fa	-0.14735785
128	0xbdcea840	-0.10090685
129	0xba8a84a9	-0.00105681
130	0xbdff5d2d	-0.12468944
131	0x3dae1ef8	0.085020006
132	0xbdcfa465	-0.10138778
133	0xbe1368ac	-0.14395398
134	0xbd1d7715	-0.038443644
135	0x3cb80d34	0.022467233
136	0xbd65bd59	-0.05608878
137	0xbbb510a3	-0.005525665
138	0xbd3d9cc8	-0.046292096
139	0x3ce4093b	0.027836433
140	0xbb962deb	-0.0045831106
141	0x3dbc1c8b	0.09185132
142	0xbdaca78e	-0.08430396
143	0xbdee32b2	-0.11630763
144	0xbd8e95db	-0.069621764
145	0x3cde4280	0.027131319
146	0x3d37f271	0.044908945
147	0xbdd8fb01	-0.1059475
148	0x381f4f5d	3.7982467e-05
149	0xbde1186a	-0.10990985
150	0xbc37581e	-0.011190442
151	0x3d2587c8	0.040412694
152	0x3dc1b01f	0.094574206
153	0x3c6feeda	0.014644349
154	0xbdea4396	-0.11438672
155	0xbcd0a97a	-0.025471438
156	0x3d3b5a2e	0.0457403
157	0xbd7d2132	-0.061799236
158	0xbd8b2ce0	-0.067956686
159	0xbd96100a	-0.07327278
160	0x3a0c5734	0.00053535705
161	0xbd19ad3a	-0.037518717
162	0x3ccb9396	0.024850648
163	0x3d55d01a	0.052200414
164	0xbc1105c9	-0.008851477
165	0xbe4701b0	-0.19434237
166	0x3d9bb91d	0.07603667
167	0xbdb354dc	-0.0875642
168	0x3d9084bc	0.07056567
169	0xbd482f61	-0.04887331
170	0xbe147ada	-0.14499989
171	0xbd89d589	-0.06730182
172	0xbd91f14a	-0.071261
173	0xbd620862	-0.055183776
174	0x3c3b1d2c	0.011420529
175	0x3c094f0c	0.008380663
176	0x3bca4b87	0.0061735543
177	0x3d1777ab	0.03697936
178	0x3d3d4648	0.046209604
179	0x3bc8a11b	0.006122721
180	0x3d76431c	0.060122594
181	0xbdaf22b3	-0.0855154
182	0xbdb02f01	-0.08602715
183	0xbdb82013	-0.08990493
184	0x3d9a4888	0.075333655
185	0x3c681904	0.01416612
186	0xbd260add	-0.040537704
187	0x3c195920	0.009359628
188	0xbcb9cf87	-0.022681965
189	0xbd2a5e1e	-0.041593663
190	0x3b8e282e	0.004338286
191	0xbd6cbf82	-0.057799824
192	0x3d0795a1	0.03310168
193	0xbcd0f8a8	-0.025509194
194	0xbdb3de1e	-0.087826
195	0xbdd20a74	-0.102559
196	0x3bd495b0	0.0064875707
197	0x3cfd1ba2	0.030896965
198	0xbdc84fb7	-0.097808294
199	0xbdf83589	-0.12119586
200	0x3c5078fa	0.012724156
201	0xbdd7249f	-0.10505032
202	0x3d0dc9c7	0.034616258
203	0x3d9b031a	0.07568951
204	0x3d924d83	0.071436904
205	0x3c956ec2	0.01824129
206	0xbd91394d	-0.070910074
207	0x3cd6e40b	0.026231786
208	0x3dc5dcdd	0.09661267
209	0xbdd446d2	-0.103650704
210	0x3d78138a	0.06056551
211	0xbe0dfbd0	-0.1386559
212	0x3af5edb0	0.0018762853
213	0xbd493612	-0.04912383
214	0xbdd94083	-0.10608008
215	0x3cc14be0	0.02359575
216	0x3dc5c143	0.09656002
217	0xbd993641	-0.07481051
218	0xbceef961	-0.029171648
219	0xbd501162	-0.050797828
220	0x3c5dae27	0.013530291
221	0xbe135481	-0.14387704
222	0x3d52b663	0.05144347
223	0xbb1b3923	-0.002368518
224	0x3da34466	0.0797203
225	0xbd8f0d85	-0.069850005
226	0xbe091d08	-0.13389981
227	0x3c326abe	0.010889707
228	0xba2cc3dd	-0.0006590465
229	0x3d2c72be	0.042101614
230	0xbda5d156	-0.08096568
231	0xbb98bc43	-0.0046611144
232	0x3d9e2225	0.07721356
233	0xbcbc3a6b	-0.022977075
234	0x3d2f8e51	0.042860333
235	0x3e09243f	0.13392733
236	0xbbb23fe2	-0.0054397443
237	0x3cfab39b	0.03060322
238	0x3b57e95b	0.0032945487
239	0x3d1fa530	0.038975894
240	0x3d0d50e1	0.03450096
241	0x3cde4f31	0.02713737
242	0xbda524cd	-0.0806366
243	0xbdecc375	-0.11560718
244	0x3dcd12ed	0.100133754
245	0xbc044289	-0.008072504
246	0xbd8de0e1	-0.06927658
247	0xbd8b8a91	-0.06813539
248	0xbe194095	-0.14966042
249	0x3d6bbf08	0.05755523
250	0xbd641bff	-0.05569076
251	0x3d21b948	0.03948334
252	0x3ca0ae32	0.019614313
253	0x3dec85ad	0.11548934
254	0xbd51f6de	-0.05126082
255	0xbd031cb2	-0.032009788
