ModelDil.pth (torch, 401722 bytes, 16 tensors)

weight f4 [8, 3, 5, 5]
0	0xbdd15bf3	-0.10222616
1	0xbac684c1	-0.0015145765
2	0xbd5a07d9	-0.05323014
3	0xbd477384	-0.04869415
4	0x3dee4c28	0.116356194
5	0x3d371236	0.0446951
6	0xbd6e72df	-0.05821502
7	0xbc63b286	-0.013897544
8	0x3db1f041	0.08688403
9	0xbb9fd8c1	-0.004878134
10	0x3caea404	0.021318443
11	0x3d7c46ee	0.06159108
12	0x3b4597a0	0.003015019
13	0xbde6d999	-0.11271972
14	0xbdc46718	-0.09589976
15	0x3d5a8f46	0.053359292
16	0x3db6a8fb	0.08918949
17	0xbc678884	-0.014131669
18	0xbcce7cf0	-0.02520606
19	0x3cfa6ee1	0.03057045
20	0x3c4be139	0.012443834
21	0x3d5c193b	0.053735
22	0x3d7ad592	0.061238833
23	0xbd7ba9e0	-0.061441302
24	0x3d1675d7	0.036733475
25	0x3dbeebf0	0.09322345
26	0xbdab7c79	-0.08373351
27	0xbd745026	-0.059646748
28	0x3d943e99	0.07238502
29	0xbd843d6e	-0.06457029
30	0x3ce9ddb3	0.028548097
31	0xbcbf3d1c	-0.023344569
32	0x3d351912	0.044213362
33	0xbd2a37bf	-0.04155707
34	0xbddced8d	-0.10787497
35	0x3d50156a	0.050801672
36	0xbdc856e8	-0.09782201
37	0xbe3b2437	-0.18275534
38	0xbdb3e74e	-0.08784352
39	0x3b83a06f	0.004016928
40	0xbe1684a6	-0.14699039
41	0xbd31857f	-0.043340202
42	0xbe029366	-0.1275154
43	0xbdc40cfb	-0.09572788
44	0xbdca85af	-0.09888779
45	0xbd881538	-0.06644672
46	0x3d9fe6b7	0.07807677
47	0xbdf95f7c	-0.12176415
48	0xbd0c21f3	-0.034212064
49	0xbd2e0445	-0.04248454
50	0xbca7846f	-0.020448891
51	0xbd2fb849	-0.042900357
52	0x3caae2eb	0.020860156
53	0xbd51cace	-0.0512188
54	0xbcdeee01	-0.027213098
55	0x3c899d39	0.016798602
56	0xbd662fa9	-0.056197796
57	0xbe175eb8	-0.14782226
58	0x3d254ae1	0.040354613
59	0xbd0e8bd4	-0.03480132
60	0x3ceba56d	0.028765405
61	0x3dcda257	0.100407295
62	0x3d8da542	0.06916286
63	0xbbea06b1	-0.007141911
64	0xbdbd2a15	-0.09236542
65	0x3d1e9d6e	0.038724355
66	0x3d859db5	0.06524221
67	0x3db0c112	0.08630575
68	0xbdc2270f	-0.09480106
69	0x3db683f6	0.08911888
70	0xbc4a9fe0	-0.012367219
71	0x3e032deb	0.12810485
72	0x3d602827	0.054725792
73	0x3e06afb5	0.13152964
74	0x3e235c5b	0.159532
75	0x3dbbef5d	0.09176514
76	0xbd1ceaa8	-0.038309723
77	0xbda53e20	-0.0806849
78	0xbca2d6f6	-0.019877892
79	0xbca4f87e	-0.020138022
80	0xbd58304e	-0.052780442
81	0xbe1989a5	-0.14993913
82	0xbdd94c10	-0.10610211
83	0xbd8cbeee	-0.068723544
84	0xbdd50696	-0.10401647
85	0xbce8216d	-0.028336251
86	0xbe2f001c	-0.17089885
87	0xbe39ee34	-0.18157274
88	0xbe0ba986	-0.13638887
89	0xbdc1a9f3	-0.09456243
90	0xbdc6ba3c	-0.0970349
91	0xbcfbe32b	-0.03074797
92	0xbe0909aa	-0.13382593
93	0xbddb18dd	-0.10698102
94	0x3d256970	0.040383756
95	0x3db9a596	0.09064786
96	0xbdb9b3d8	-0.090675056
97	0xbd33ea5e	-0.04392468
98	0xbd62b5a3	-0.055349004
99	0xbd64f9ed	-0.05590241
100	0xbd446194	-0.04794462
101	0x3cf48951	0.029850634
102	0xbd2cbed2	-0.042174168
103	0x3e4146fb	0.18874733
104	0xbcbf10db	-0.023323467
105	0x3daf91bd	0.08572719
106	0x3d4418d2	0.047875233
107	0x3d163205	0.036668796
108	0x3d47d8b0	0.048790634
109	0xbd611591	-0.054952208
110	0xbd83228b	-0.06403073
111	0x3deba148	0.11505371
112	0xbd90a751	-0.07063163
113	0x3d0a9858	0.033836693
114	0x3d2e2a69	0.042520914
115	0x3dc96ed2	0.098355904
116	0xbd691a59	-0.056909893
117	0xbbfa9957	-0.007647674
118	0x3df9ace4	0.121911794
119	0x3db5341c	0.0884783
120	0x3e42fa72	0.1904085
121	0x3d14738e	0.036243014
122	0xbd16b43b	-0.036792975
123	0x3cb64fa5	0.022254774
124	0x3e0e68af	0.13907121
125	0xbd1828f0	-0.037148416
126	0x3cb0a678	0.021563753
127	0xbca741cb	-0.020417115
128	0xbe0e3adb	-0.13889639
129	0xbe25a3e6	-0.16175804
130	0xbd599c91	-0.05312783
131	0xbd2df229	-0.04246727
132	0xbe1221dd	-0.1427073
133	0xbde7427b	-0.11291977
134	0xbca07765	-0.019588182
135	0x3bd9d83f	0.006648093
136	0xbdcd5280	-0.10025501
137	0xbe0cbf16	-0.13744769
138	0xbd8f60ed	-0.07000909
139	0xbe282244	-0.16419321
140	0xbd1018a0	-0.035179734
141	0x3cbccda4	0.023047276
142	0xbe06dfb7	-0.13171278
143	0xbd215a3a	-0.039392687
144	0xbdacef08	-0.08444029
145	0x3bac9883	0.0052672043
146	0xbd9a14f4	-0.07523528
147	0xbdbef64e	-0.09324323
148	0xbd951cfe	-0.072809204
149	0xbd4c1834	-0.04982777
150	0x3d0f6a4d	0.035013486
151	0x3e01ff1d	0.12694974
152	0xbbd98389	-0.0066379947
153	0xbd47b791	-0.048759047
154	0x3d2b2ce4	0.041790858
155	0x3b1bf3a7	0.002379635
156	0x3d9e8cef	0.07741725
157	0xbd4eadd9	-0.050458763
158	0xbddfad23	-0.10921695
159	0x3cd9f44a	0.026605744
160	0x3d50ebb1	0.051006023
161	0x3d13d711	0.036093775
162	0xbe256a64	-0.16153866
163	0x3cfd275b	0.030902555
164	0xbc0bb047	-0.0085259145
165	0x3d3151b4	0.04329081
166	0x3d803f99	0.0626213
167	0x3cb5806c	0.022155963
168	0x3caa114a	0.020760197
169	0x3d69ec60	0.05711019
170	0x3d70408d	0.05865531
171	0xbcf5ee5f	-0.03002089
172	0xbd8352af	-0.06412255
173	0x3dea37c6	0.11436419
174	0x3d3b64b4	0.045750335
175	0x3ccf88af	0.02533373
176	0x3db24d19	0.087061115
177	0xbcd5dc1e	-0.026105937
178	0xbdd3f84b	-0.103500925
179	0xbd8cca22	-0.06874491
180	0x3da03c91	0.07824052
181	0x3d9d015d	0.07666276
182	0xbdf900dc	-0.12158367
183	0xb8e84e57	-0.00011077214
184	0xbdbb00fe	-0.091310486
185	0xbd8de3d3	-0.0692822
186	0x3cda1368	0.026620582
187	0xbe045a42	-0.12925056
188	0xbccd6ff0	-0.02507779
189	0x3ce36b31	0.027761074
190	0xbc97fea7	-0.018554045
191	0xbca12a83	-0.019673591
192	0xbd90e656	-0.07075183
193	0xbd3e794d	-0.0465024
194	0x3d8ec21b	0.069706164
195	0x3c8dc408	0.017305389
196	0x3d950438	0.07276195
197	0xbc9293b7	-0.017892702
198	0x3d4b003f	0.04956078
199	0x3dc8747d	0.097878434
200	0xbe29f399	-0.16596831
201	0xbb912186	-0.004429045
202	0x3de13b19	0.109976
203	0xbd892fe9	-0.06698591
204	0x3be332a9	0.0069335294
205	0xbd90b1f6	-0.07065193
206	0x3d6ed091	0.058304373
207	0xbd394cd2	-0.045239277
208	0xbc139880	-0.009008527
209	0xbd327c87	-0.04357579
210	0x3d9856d3	0.074384354
211	0x3c7461bb	0.014915879
212	0xbe390203	-0.18067174
213	0xbb071f1e	-0.0020617913
214	0x3c72e4b1	0.014825032
215	0x3d7b9bb4	0.061427787
216	0xbcb28e4c	-0.021796368
217	0xbe0eb67a	-0.13936797
218	0x3d44bd71	0.048032228
219	0xbd1f0a9c	-0.038828477
220	0xbe01dc33	-0.12681656
221	0x3db6b3c6	0.08921008
222	0x3d069c79	0.032864068
223	0x3d9f7237	0.07785457
224	0x3d98fbb5	0.07469884
225	0x3d81617e	0.06317423
226	0x3d0b329a	0.033983804
227	0xbdad579b	-0.08463975
228	0x3c9f9bd4	0.019483484
229	0x3dafc183	0.08581831
230	0xbccceb83	-0.025014644
231	0xbdfe1fff	-0.124084465
232	0xbcfd1c1c	-0.030897193
233	0x3d91de4b	0.07122477
234	0x3c9ad2a3	0.018899268
235	0x3de69c22	0.11260249
236	0xbe07b8b2	-0.1325405
237	0x3d410d90	0.047132075
238	0x3d3ed6d0	0.04659158
239	0xbd844e89	-0.06460292
240	0x3debd1e0	0.1151464
241	0xbd9d7533	-0.076883696
242	0xbe179bbd	-0.14805503
243	0xbcbcde33	-0.023055172
244	0x3d5e0569	0.05420438
245	0x3e3db9f1	0.18527962
246	0xbdc3f6e7	-0.09568577
247	0xbdd05d7a	-0.10174079
248	0x3dab951f	0.08378052
249	0xbd4463e7	-0.047946837
250	0x3d8bc642	0.06824924
251	0x3cf9c8a5	0.030491183
252	0x3b8efd5a	0.004363698
253	0x39d926f4	0.00041418488
254	0x3e0af251	0.13568999
255	0x3daccec0	0.08437872

bias f4 [8]
0	0xbe17c5bc	-0.14821523
1	0xbd034e28	-0.032056957
2	0xbd98380b	-0.07432564
3	0xbe160c22	-0.14653066
4	0xbc0edd1d	-0.00871971
5	0xbcc61a27	-0.024182392
6	0x3c320f18	0.010867856
7	0xbd27a40c	-0.04092793

weight f4 [16, 8, 5, 5]
0	0x3dbb0a17	0.09132784
1	0xbb7523f3	-0.003740546
2	0x3d869ff7	0.065734796
3	0xbd553152	-0.05204899
4	0xbe0660f3	-0.1312292
5	0x3d9ad1a5	0.07559518
6	0x3c24ea8d	0.010065687
7	0xbdb3a4b3	-0.08771648
8	0xbcdcb500	-0.026941776
9	0xbd97a60f	-0.0740472
10	0x3cdd35cd	0.027003193
11	0x3c089c4c	0.008338045
12	0xbd77c713	-0.060492586
13	0xbd3acde3	-0.045606505
14	0x3c3708db	0.011171545
15	0x3d8e1a52	0.06938614
16	0x3d4e9759	0.050437305
17	0x3d5dd3df	0.054157134
18	0xbc809112	-0.015694175
19	0x3d09961a	0.033590414
20	0xbc30f5d6	-0.010800799
21	0x3df2ffbb	0.11865183
22	0x3ddc6365	0.107611455
23	0x3d1ff86c	0.039055273
24	0x3ce54566	0.027987193
25	0x3d171f46	0.03689506
26	0x3d92fa96	0.07176702
27	0x3c209f12	0.00980355
28	0xbd2f5715	-0.042807657
29	0xbdbc7613	-0.09202208
30	0xbc3c2468	-0.011483289
31	0x3a6050bb	0.00085569517
32	0xbda583af	-0.08081757
33	0x3d20a017	0.039215174
34	0xbdaf4154	-0.08557382
35	0xbd16e5e7	-0.036840346
36	0xbce0707b	-0.027397385
37	0xbc08b2f4	-0.008343447
38	0xbd4be1ca	-0.049775876
39	0x3d95d7bf	0.07316541
40	0xbd544729	-0.051825676
41	0xbd37b1f4	-0.044847444
42	0xbd1e304d	-0.038620282
43	0x3b2a9753	0.0026030138
44	0xbc80aad6	-0.01570646
45	0xbde5518b	-0.11197194
46	0xbdc33294	-0.095311314
47	0x3c7493f2	0.014927851
48	0xbd4e1b7a	-0.050319172
49	0x3b8dcdad	0.004327497
50	0xbd8046fe	-0.06263541
51	0xbc2bda59	-0.01048907
52	0xbc287b33	-0.010283279
53	0xbd9a6c5b	-0.075401984
54	0xbc612e99	-0.01374402
55	0xbc91b930	-0.0177885
56	0xbd988637	-0.074474744
57	0x3c6f647a	0.014611358
58	0x3d1101cf	0.035402115
59	0x3d5b6bc1	0.05356956
60	0xbd71ef26	-0.05906596
61	0xbdcb00d0	-0.09912264
62	0xbdcd4bbd	-0.100242116
63	0x3d775a0f	0.06038862
64	0x3cde1454	0.027109303
65	0xbc3b47e7	-0.011430717
66	0x3c292909	0.010324725
67	0xbd4be5d4	-0.049779728
68	0xbd301083	-0.042984497
69	0x3d93144d	0.071816064
70	0xbb7c0da4	-0.003846028
71	0xbd8844e6	-0.06653766
72	0x3d53c959	0.051705692
73	0x3b894c6b	0.004190018
74	0x3d992c12	0.07479109
75	0x3dbc32d3	0.091893815
76	0x3d3fe88e	0.04685264
77	0xbd3c493c	-0.04596828
78	0x3d0d12b4	0.034441665
79	0xbd547099	-0.051865194
80	0xbda5fe57	-0.08105152
81	0x3d18a3a8	0.03726545
82	0xbdcdf65e	-0.100567564
83	0xbd8c0c1d	-0.06838248
84	0xbd45104b	-0.04811124
85	0xbdc97148	-0.0983606
86	0x3bad91a8	0.0052969046
87	0xbe299f49	-0.16564669
88	0x3cde40f0	0.027130574
89	0x3da41727	0.080122285
90	0x3bf4d9d6	0.007472257
91	0x3d4e10e0	0.050309062
92	0xbca9e27e	-0.020737883
93	0x3b8782b8	0.004135456
94	0x3d3ba7fc	0.0458145
95	0xbcd886ba	-0.02643143
96	0x3d9f2d99	0.07772369
97	0xbd68159f	-0.056661244
98	0x3d85b5f8	0.065288484
99	0xbcdd654d	-0.027025843
100	0x3c453f2c	0.012038987
101	0x3dac3513	0.084085606
102	0x3d7e536c	0.062091276
103	0x3de8b7e8	0.11363202
104	0x3d026408	0.03183368
105	0xbce94759	-0.028476404
106	0xbbd1e08e	-0.006404943
107	0x3dad2d62	0.08455922
108	0x3cc5355c	0.024073295
109	0x3ca4f212	0.02013496
110	0xbdd0f9f0	-0.10203922
111	0x3cc738ce	0.024319079
112	0xbcc8b35c	-0.024499588
113	0x3d972b4e	0.073813066
114	0x3b873eb0	0.004127346
115	0xbc4def63	-0.012569281
116	0x3d341841	0.043968443
117	0x3c5080b0	0.012725994
118	0x3de3b510	0.11118519
119	0x3d2043a9	0.039127026
120	0xbd0f6716	-0.03501042
121	0x3c2d32d0	0.010571197
122	0x3da3d6a9	0.079999276
123	0x3c6a88cd	0.014314842
124	0x3bc67516	0.006056438
125	0xbdeff88d	-0.11717329
126	0xbd60eb2c	-0.054911777
127	0xbde0bca2	-0.10973479
128	0x3c72da1f	0.014822512
129	0x3cea7664	0.028620906
130	0x3c7dc2fb	0.0154883815
131	0xbc5f9376	-0.013645997
132	0x3d072120	0.032990575
133	0x3d5636f4	0.0522985
134	0x3d15703c	0.03648399
135	0xbd19d6e1	-0.03755844
136	0x3d73da3c	0.059534296
137	0x3cc6896d	0.024235452
138	0x3c2576a7	0.01009909
139	0xbc82e72b	-0.01597937
140	0xbc90c99e	-0.017674264
141	0x3c8e4255	0.017365614
142	0xbcde4f3a	-0.027137388
143	0xbd1c6b20	-0.0381881
144	0xbd924c2f	-0.07143437
145	0xbd624c08	-0.05524829
146	0x3d8782d6	0.06616752
147	0xbbf9b386	-0.007620278
148	0x3c236ca6	0.009974634
149	0xbda7bef9	-0.08190722
150	0xbd8a8fbe	-0.06765698
151	0xbda3b571	-0.079935916
152	0xbd848e7e	-0.06472491
153	0x3d28f2e1	0.041247252
154	0x3c30ba47	0.0107865995
155	0x3c6f9381	0.01462257
156	0xbc16d7c6	-0.009206718
157	0x3c4f78cb	0.012663077
158	0x3d99e677	0.07514661
159	0xbda59d45	-0.080866374
160	0x3cab4c9e	0.020910557
161	0xbd6fd361	-0.058551196
162	0xbd46fae6	-0.04857912
163	0xbbfa080e	-0.0076303547
164	0xbe0ce041	-0.13757421
165	0xbcfa811d	-0.030579144
166	0x3d031064	0.031998053
167	0x3d06b322	0.032885678
168	0x3d11fb79	0.035640214
169	0xbd1c2358	-0.038119644
170	0xbda77c65	-0.08178023
171	0x3dacf999	0.084460445
172	0xbc019633	-0.007909345
173	0x3dbcac37	0.09212535
174	0x3d68d2ac	0.056841537
175	0x3da67f47	0.08129745
176	0x3d52f0eb	0.05149929
177	0x3cc5b0b2	0.024132106
178	0xbd84f8b0	-0.06492746
179	0xbb9e28a8	-0.004826624
180	0xbda09814	-0.078415066
181	0xbd812037	-0.063049726
182	0xbe1f6802	-0.1556702
183	0xbc3d7fcc	-0.011566114
184	0x3d3e3b04	0.046443
185	0xbdb845c7	-0.08997684
186	0xbdd61ae1	-0.104543455
187	0xbd64067e	-0.055670254
188	0xba070ede	-0.00051520567
189	0x3d6dddaa	0.058072723
190	0xbc8b724a	-0.01702227
191	0xbd808a00	-0.062763214
192	0xbd41c578	-0.04730746
193	0xbd659d0b	-0.05605797
194	0xbd1fadec	-0.038984224
195	0xbd416675	-0.04721685
196	0xbdbb2d70	-0.09139526
197	0xbd709a16	-0.058740698
198	0xbd7399ec	-0.059472963
199	0xbbb2d0a6	-0.0054570017
200	0xbd972dba	-0.073817685
201	0x3d9728b9	0.07380814
202	0x3d8af3ee	0.06784807
203	0xbc100ae1	-0.008791656
204	0x3d7db4a2	0.061939843
205	0x3d862e8d	0.065518476
206	0x3d065edb	0.032805305
207	0x3e2522cd	0.16126557
208	0x3db4c266	0.08826141
209	0xbd6d00f0	-0.057862222
210	0xbd313434	-0.043262675
211	0x3e06e004	0.13171393
212	0x3d2794d7	0.04091343
213	0x3de26fae	0.110564575
214	0xbdb0ae0d	-0.086269476
215	0xbc0adf4d	-0.008476091
216	0xbe042c54	-0.12907535
217	0xbdd1bfbe	-0.1024165
218	0x3d865322	0.06558825
219	0xbd24c613	-0.04022796
220	0xbde473d8	-0.11154908
221	0xbe5a767f	-0.21334265
222	0xbe2f42fc	-0.17115396
223	0xbd7d4286	-0.06183102
224	0xbd72fa94	-0.059321
225	0x3e320dce	0.17388079
226	0x3e31ab08	0.173504
227	0x3de5e91c	0.11226103
228	0x3e2a66b8	0.16640747
229	0x3ddbb33b	0.10727545
230	0x3dcabbe5	0.09899119
231	0x3e4b2f62	0.19842294
232	0x3e2714d8	0.16316545
233	0x3da78db4	0.081813246
234	0xbabc261b	-0.0014354618
235	0x3c876a7e	0.016530272
236	0x3dc40f70	0.09573257
237	0x3d7a12e4	0.06105317
238	0xbc5cbdea	-0.013473013
239	0x3c8a684b	0.016895434
240	0xbd6036ce	-0.054739766
241	0xbe0e6bb7	-0.13908277
242	0xbe47e651	-0.19521452
243	0xbe232ed8	-0.15935838
244	0xbb90b140	-0.004415661
245	0xbc296ef4	-0.010341395
246	0xbe08281e	-0.13296553
247	0xbe450f52	-0.19244125
248	0xbe42158f	-0.18953536
249	0xbda7cb62	-0.08193089
250	0xbd54cedd	-0.051955093
251	0xbdcd7b86	-0.10033326
252	0xbdd35081	-0.10318089
253	0x3d5e83fc	0.05432509
254	0x3d329fb4	0.043609336
255	0x3ceeac8a	0.029135007

bias f4 [16]
0	0xbc32c05c	-0.01091012
1	0x3e012373	0.12611179
2	0xbe0b7e7e	-0.13622472
3	0x3de06dc9	0.1095844
4	0xbd7755bb	-0.060384493
5	0xbdb360e4	-0.08758715
6	0xbe1ec457	-0.15504585
7	0xbe1d8840	-0.15384007
8	0x3a06134e	0.0005114571
9	0xbd1dc989	-0.038522277
10	0xbdc06e7a	-0.09396072
11	0xbe531eae	-0.20617172
12	0x3d40879d	0.04700433
13	0xbe81a81c	-0.2532357
14	0x3b45ec88	0.0030200798
15	0xbda43db8	-0.080195844

weight f4 [32, 16, 3, 3]
0	0xbd5c7617	-0.053823557
1	0xbcef3c64	-0.029203601
2	0xbba2b224	-0.0049650837
3	0xbd555651	-0.05208427
4	0xbd966460	-0.07343364
5	0x3d8fdcb3	0.07024517
6	0x3c042af2	0.00806688
7	0xbc6890e3	-0.0141947
8	0x3d89d420	0.06729913
9	0xbe229fb6	-0.15881237
10	0xbe0d6df0	-0.13811469
11	0x3c6dd5c3	0.014516297
12	0xbbc99111	-0.0061513265
13	0x3d90ec86	0.07076363
14	0x3d341b15	0.04397114
15	0xbbdb5e66	-0.006694603
16	0x3d2d8cbe	0.04237055
17	0xbe0dc6e4	-0.13845402
18	0x3d1cb2e4	0.03825654
19	0x3cd37258	0.02581136
20	0xbd4dd924	-0.05025591
21	0xba9a5fba	-0.0011777796
22	0x3c60f0f8	0.013729326
23	0x3cd51074	0.026008822
24	0xbcfadea9	-0.03062375
25	0xbe0cd54b	-0.1375324
26	0xbc53cbe4	-0.012927029
27	0x3d19822a	0.03747765
28	0xbdb70311	-0.08936132
29	0xbe008838	-0.12551963
30	0xbc24523d	-0.010029373
31	0xbcfdd558	-0.03098552
32	0xbda3dbb2	-0.08000888
33	0x3e196052	0.1497815
34	0x3e2cb894	0.16867286
35	0x3ce4c7cc	0.027927302
36	0xbdbd1b16	-0.09233682
37	0xbdae8c0c	-0.085228056
38	0xbbd0a4dd	-0.0063673095
39	0xbda8e63d	-0.082470395
40	0xbdb1b996	-0.08677976
41	0xbd920fe2	-0.07131936
42	0xbd47e0d4	-0.048798397
43	0x3d9fc4e9	0.078012295
44	0x3d583f01	0.05279446
45	0xbd56c055	-0.052429516
46	0x3de3c35a	0.11121245
47	0x3d1e0f48	0.038588792
48	0x3d84bb1c	0.06481001
49	0x3d8fc20f	0.070194356
50	0x3d212fef	0.039352354
51	0xbd462ff1	-0.048385564
52	0xbdfa475e	-0.122206435
53	0xbdd41cf1	-0.10357083
54	0xbd20fae6	-0.039301775
55	0x3d35dbdf	0.04439914
56	0x3c5adf38	0.013358884
57	0x3c822106	0.015884887
58	0xbc65514d	-0.013996434
59	0xbe06bfad	-0.13159056
60	0x3d474d53	0.048657726
61	0xbdc598b6	-0.09648268
62	0xbe030dfb	-0.12798302
63	0x3d5e2261	0.054232005
64	0xbd062db1	-0.03275842
65	0xbcda19ac	-0.02662357
66	0x3ce78baf	0.028264849
67	0x3c09a3e6	0.008400893
68	0xbdf65857	-0.12028568
69	0x3d7eb739	0.062186453
70	0x3c7e43f3	0.01551913
71	0xbbee769f	-0.0072773243
72	0xbdcbd460	-0.09952617
73	0xbd08b7de	-0.033378474
74	0xbd196d26	-0.037457608
75	0x3cfd1469	0.030893521
76	0x3d3ad897	0.045616712
77	0x3e3bd344	0.1834231
78	0x3c2504ec	0.010071974
79	0x3d927081	0.07150365
80	0x3da9235b	0.08258697
81	0xbd8b3e19	-0.067989536
82	0xbd043da8	-0.032285362
83	0xbe0a326a	-0.13495794
84	0xbd774fef	-0.060378965
85	0x3da05fb9	0.07830758
86	0x3d915387	0.0709601
87	0x3ab51a97	0.0013817128
88	0xbd85dc8a	-0.06536205
89	0x3da8a0f7	0.082338266
90	0x3c1549cd	0.009111834
91	0x3d0ff679	0.035147164
92	0xbcbe8702	-0.023257736
93	0x3d52418c	0.05133204
94	0x3d053bc5	0.032527704
95	0xbd742c5e	-0.059612624
96	0xbc292e6c	-0.010326009
97	0x3c9e7f38	0.019347772
98	0xbdb74feb	-0.0895079
99	0x3d4ab6ef	0.049490865
100	0xbd7071b1	-0.058702175
101	0xbcc00885	-0.023441562
102	0x3c151a8d	0.0091005685
103	0x3c1d7141	0.009609521
104	0xbdab0882	-0.08351232
105	0x3deb0fb3	0.11477604
106	0xbdddba0a	-0.108265
107	0xbd2b7cf0	-0.041867197
108	0xbd5cd7af	-0.05391663
109	0xbdfc1d47	-0.12310272
110	0xbdf3ea91	-0.11909974
111	0xbd70f9c4	-0.058831945
112	0xbd70ccfc	-0.05878924
113	0x3db46c1f	0.08809685
114	0xbd6f7a81	-0.05846644
115	0x3d808bb5	0.06276647
116	0x3c75d92b	0.01500539
117	0x3c8705d2	0.016482268
118	0x3d7c8ac3	0.06165577
119	0x3ded0f4b	0.115751825
120	0xbcae19a6	-0.021252465
121	0x3d945a71	0.07243813
122	0xbd39c24a	-0.045351304
123	0xbd8a049d	-0.06739161
124	0x3cfc516a	0.03080054
125	0x3e25f0f2	0.16205195
126	0xbdb0283b	-0.08601423
127	0xbdcb8100	-0.09936714
128	0xb92c86b2	-0.00016453376
129	0xbdee472c	-0.11634669
130	0xbcf31997	-0.029675288
131	0x3d920ff5	0.0713195
132	0xbceac1a2	-0.028656784
133	0x3da96a30	0.08272207
134	0x3e223716	0.15841326
135	0xbe0d22ba	-0.13782778
136	0x3dad3362	0.08457066
137	0x3bca7ff9	0.0061798063
138	0xbd7e1136	-0.062028132
139	0xbbd6137c	-0.0065330844
140	0xbd7c90d9	-0.061661575
141	0xbda1a58f	-0.07892906
142	0xbd92a9c2	-0.07161285
143	0x3d9dc868	0.0770424
144	0x3de886b8	0.113538206
145	0xbd10ab0d	-0.035319377
146	0x3db076c1	0.086164005
147	0x3e3d458d	0.18483563
148	0xbcec54f9	-0.028849112
149	0x3e271575	0.16316779
150	0x3d5a1af2	0.053248353
151	0x3d91a633	0.07111778
152	0x3de00f4e	0.10940419
153	0xbc8ca87b	-0.017170181
154	0xbcc3d132	-0.023903463
155	0x3e188078	0.14892757
156	0xbdf72047	-0.12066703
157	0xbd64b2b2	-0.05583448
158	0xbcb4e96f	-0.022083966
159	0xbda7c36d	-0.081915714
160	0xbd423867	-0.04741707
161	0xbce82416	-0.02833752
162	0x3d9f4f07	0.07778745
163	0x3d73b9a5	0.059503216
164	0xbba88ee0	-0.005143985
165	0xbda13d20	-0.07872987
166	0xbaf5413b	-0.0018711457
167	0x3d2556b8	0.040365905
168	0xbd299199	-0.04139862
169	0x3d116689	0.035498176
170	0x3d42b388	0.047534496
171	0x3cbcb8d1	0.023037346
172	0xbdcc541b	-0.09976979
173	0x3a33fede	0.0006866286
174	0xbd792171	-0.060822908
175	0xbe19e2d5	-0.15027936
176	0x3d802a73	0.062580965
177	0xbc1022e0	-0.008797377
178	0xbd924af7	-0.07143205
179	0x3d64f044	0.055893198
180	0x3c0ca5c1	0.008584441
181	0xbc987a57	-0.018613024
182	0xbddbf29a	-0.10739632
183	0x3c0e7d13	0.008696812
184	0xbcfb543f	-0.03067982
185	0xbd3167f9	-0.043312047
186	0x3bc9e9a7	0.0061618867
187	0xbd5a5834	-0.053306773
188	0x3d469df6	0.048490487
189	0x3da7ba04	0.081897765
190	0xbc32c941	-0.0109122405
191	0x3e1a5c31	0.1507423
192	0x3db4fa08	0.08836752
193	0xbde05690	-0.109540105
194	0xbdaedcb4	-0.085381895
195	0xbd0dd365	-0.03462543
196	0x3db7ee11	0.089809544
197	0xbc7e10dd	-0.01550695
198	0x3c44e618	0.012017749
199	0x3d48ae2e	0.048994236
200	0x3ca12aa2	0.01967365
201	0xbde14fca	-0.11001547
202	0xbc55a88d	-0.013040674
203	0xbbd6b297	-0.0065520513
204	0xbdd78dfb	-0.105251275
205	0xba09574c	-0.00052391435
206	0x3dd2f65b	0.10300895
207	0x3d74c808	0.059761077
208	0x3c8f2f42	0.017478589
209	0xbd0559c1	-0.0325563
210	0xbc50df23	-0.012748512
211	0xbdc222cb	-0.094792925
212	0xbe026995	-0.12735589
213	0x3d8daf4f	0.06918203
214	0xbd11c908	-0.03559211
215	0xbbc9849b	-0.006149841
216	0x3d34ba9c	0.044123277
217	0xbe00a330	-0.12562251
218	0x3be4a8e3	0.0069781407
219	0x3b9382d8	0.004501682
220	0xbe4071c6	-0.18793401
221	0x3dba1218	0.09085482
222	0xbd9676dd	-0.0734689
223	0xbdbeb1b8	-0.09311241
224	0x3da8d009	0.082428046
225	0xbdb4f8a4	-0.08836487
226	0x3c15dd0d	0.009146941
227	0xbb74148f	-0.00372437
228	0xbd80d5aa	-0.06290753
229	0x3d116c54	0.0355037
230	0x3dd55abe	0.10417698
231	0xbd832d65	-0.06405143
232	0x3ccc6f8d	0.024955535
233	0xbd47db59	-0.04879317
234	0x3d65e56e	0.056127004
235	0xbc1222b5	-0.008919408
236	0xbd8eb40c	-0.06967935
237	0x3d80f854	0.06297365
238	0xbc504365	-0.012711381
239	0xbcc76c69	-0.024343686
240	0x3db2ae58	0.0872466
241	0xbd94ed81	-0.07271863
242	0x3dda2206	0.10651021
243	0xbd1f5305	-0.038897533
244	0xbd80eadf	-0.06294798
245	0xbd3356f6	-0.043784104
246	0xbdee5bdc	-0.116386145
247	0xbd766920	-0.06015885
248	0x3d80b77d	0.062849976
249	0x3b9026a0	0.0043991357
250	0x3cb09993	0.021557605
251	0x3e0f0707	0.13967524
252	0x3da68e71	0.08132637
253	0xbdb28e4f	-0.087185495
254	0xbd68ac7c	-0.05680512
255	0x3c901f74	0.017593123

bias f4 [32]
0	0xbe5a4cdf	-0.21318386
1	0xbe43b649	-0.19112505
2	0xbe502487	-0.20326434
3	0xbe21d13f	-0.15802477
4	0xbe36a76c	-0.17837304
5	0xbe43e1e7	-0.19129144
6	0xbe2d3aa3	-0.169169
7	0xbe18386d	-0.14865275
8	0xbe51129d	-0.20417257
9	0xbe133112	-0.14374188
10	0xbe143289	-0.14472403
11	0xbddd0490	-0.10791886
12	0xbda2821f	-0.07934975
13	0xbe9f5afa	-0.31124097
14	0xbe1b2c90	-0.15153718
15	0xbd8b6e33	-0.06808128
16	0xbe966b7b	-0.29378876
17	0xbc3ba76b	-0.01145349
18	0xbeabb36f	-0.33535334
19	0xbe726d98	-0.23674619
20	0xbe91d20e	-0.28480572
21	0xbd925c73	-0.071465395
22	0xbd104de1	-0.03523052
23	0xbda8a426	-0.08234434
24	0xbcd91324	-0.026498385
25	0xbe03105e	-0.12799212
26	0xbe2c3e3c	-0.16820616
27	0xbe45c957	-0.19315086
28	0xbdb8af67	-0.0901783
29	0xbe0df518	-0.13863027
30	0xbe2dc578	-0.1696986
31	0xbe085abe	-0.13315865

weight f4 [64, 32, 5, 5]
0	0x3dd1a50e	0.1023656
1	0xbcc9161e	-0.02454668
2	0x3d8b958b	0.068156324
3	0x3cb5bc55	0.02218453
4	0x3c06e912	0.008234279
5	0xbda90d7d	-0.08254526
6	0xbe058cec	-0.13042039
7	0xbce39a7c	-0.027783625
8	0xbc8388ba	-0.016056407
9	0xbc1804f4	-0.009278525
10	0xbd2f87c3	-0.04285408
11	0x3bc77386	0.0060867695
12	0xbd4b4cf0	-0.04963392
13	0xbdb5908a	-0.08865459
14	0xbd94ca7d	-0.07265184
15	0xbe04957c	-0.12947649
16	0xbd2fd321	-0.042925958
17	0x3c478fc4	0.0121802725
18	0xbd836b47	-0.06416946
19	0x3d5dd674	0.054159597
20	0xbcecd374	-0.028909422
21	0xbe04d602	-0.12972263
22	0xbda31507	-0.07962995
23	0xbd45270e	-0.04813295
24	0xbdbbb4cb	-0.09165343
25	0xbe4fd161	-0.20294715
26	0x3d52495f	0.051339503
27	0x3dd1df2c	0.10247645
28	0x3e362ba6	0.17790088
29	0xbceab51d	-0.028650815
30	0x3d83c49f	0.06433987
31	0x3e1e77b8	0.15475357
32	0x3d11506e	0.035477094
33	0x3dce13a4	0.1006234
34	0xbbb1460b	-0.005409961
35	0x3daad899	0.08342094
36	0x3df4039b	0.1191475
37	0x3ced8bbb	0.028997293
38	0x3d9200e3	0.071290754
39	0x3d271e00	0.040800095
40	0x3e072b23	0.13200049
41	0x3d4c6590	0.049901545
42	0xbc51c63a	-0.012803609
43	0x3caa98e5	0.020824859
44	0x3e4a399a	0.19748536
45	0x3da8045b	0.08203956
46	0x3bf6cbbe	0.007531612
47	0xbd4e1902	-0.050316818
48	0x3df5ec5b	0.12007972
49	0x3e372e7d	0.17888828
50	0x3dad8bd2	0.08473934
51	0x3c958eda	0.018256593
52	0x3e893539	0.26798418
53	0xbe8aab5e	-0.27083868
54	0xb82d0a41	-4.1255964e-05
55	0xbdb0d58e	-0.08634482
56	0x3d6bfeb8	0.057615966
57	0x3d7e7905	0.062127132
58	0x3e397010	0.18109155
59	0x3e80eefd	0.25182334
60	0x3e0dc7c3	0.13845734
61	0x3dadf620	0.0849421
62	0x3d8c9985	0.06865219
63	0xbd7210d5	-0.059098084
64	0x3da36c70	0.07979667
65	0x3cd0b991	0.02547911
66	0xbd59e03c	-0.053192362
67	0xbc7c66bd	-0.015405354
68	0x3c32e0ae	0.010917826
69	0x3d06a416	0.03287133
70	0x3e4fc919	0.20291556
71	0xbc9c90ab	-0.019111952
72	0x3e28a73b	0.16470043
73	0xbdda08de	-0.106462225
74	0xbc054273	-0.0081335185
75	0xb8a4030a	-7.8206955e-05
76	0xbd0bd773	-0.034141015
77	0xbdb0fbc3	-0.0864177
78	0xbe670505	-0.22560509
79	0xbdcb04a2	-0.09912993
80	0x3caf2d1e	0.021383818
81	0xbdb50b75	-0.08840076
82	0xbda6e986	-0.0815001
83	0x3db7d750	0.089766145
84	0x3c550d21	0.013003618
85	0x3daa528a	0.08316524
86	0x3d38785e	0.045036666
87	0xbd0242f4	-0.031802133
88	0xbdf2f1a0	-0.118624926
89	0xbddf8357	-0.10913723
90	0xbe105c38	-0.14097679
91	0xbdcdacba	-0.100427106
92	0x3c07673a	0.008264357
93	0xb84d2bab	-4.8916478e-05
94	0xbe068176	-0.13135323
95	0x3bc12c12	0.005895146
96	0xbdc628d7	-0.09675758
97	0xbe17b6c9	-0.14815821
98	0xbdf1d574	-0.11808291
99	0xbe7fd825	-0.24984796
100	0xbd8416e1	-0.06449676
101	0x3b53d5aa	0.0032323399
102	0x3bcd015d	0.006256266
103	0xbd221c99	-0.039578054
104	0x3bf46059	0.0074577746
105	0x3db0eab3	0.08638515
106	0x3c0f8686	0.0087601
107	0x3d2ea1b4	0.04263468
108	0xbdd12da7	-0.102137856
109	0x3defc349	0.117071696
110	0x3c124a3f	0.008928834
111	0xb8f3e95b	-0.00011630609
112	0xbd0c772f	-0.03429335
113	0x3b4fab3f	0.0031687764
114	0x3c8b1091	0.016975673
115	0x3d847d4c	0.06469211
116	0x3d619a6a	0.0550789
117	0xbdcb09a9	-0.09913952
118	0xbdb7ba38	-0.08971065
119	0xbd22b446	-0.039722703
120	0x3d54c243	0.051943075
121	0x3df0fc79	0.11766905
122	0x3d6f1693	0.058371138
123	0xbe31bab9	-0.17356385
124	0xbc6a73e8	-0.014309861
125	0x3d0bf6d5	0.034170944
126	0x3cf83e41	0.030303122
127	0xbd8bdb3d	-0.06828926
128	0x3e4a85cb	0.197776
129	0xbd72748c	-0.05919318
130	0xbd247c47	-0.040157583
131	0x3bee5d90	0.007274337
132	0xbcb5f70d	-0.02221253
133	0x3e0e68e1	0.13907196
134	0xbd9dffc2	-0.077147976
135	0x3d129585	0.035787124
136	0x3d90a088	0.07061869
137	0x3dbdac5f	0.09261393
138	0xbd9f00f1	-0.077638514
139	0xbd80a86c	-0.06282124
140	0xbe03be20	-0.12865496
141	0x3d6a279f	0.057166692
142	0x3d843895	0.06456105
143	0xbd52c028	-0.051452786
144	0xbd9c948b	-0.0764552
145	0xbda97b52	-0.082754746
146	0xbe0ab8b0	-0.13547015
147	0xbdfb7591	-0.122782834
148	0xbd9cdec0	-0.07659674
149	0x3d09f70e	0.033682875
150	0x3e045acc	0.12925261
151	0xbe420521	-0.18947269
152	0x3e061702	0.13094714
153	0xbe32ecef	-0.17473195
154	0xb9dca596	-0.0004208504
155	0xbdd2678d	-0.10273657
156	0x3c98aaf0	0.018636197
157	0x3bcb7c30	0.0062098727
158	0x3e10940a	0.14118972
159	0x3ce1e631	0.027575584
160	0x3e098404	0.13429266
161	0x3d1e665e	0.038671844
162	0x3dbc4d46	0.09194426
163	0x3e254052	0.16137818
164	0x3e1ecd01	0.1550789
165	0x3dd56d6e	0.10421263
166	0xbc11d913	-0.008901852
167	0x3df04b04	0.11733058
168	0x3d1fdca0	0.039028764
169	0x3da5faa9	0.0810445
170	0x3d49e06b	0.049286287
171	0xbcb5c6e2	-0.022189561
172	0x3e04986c	0.1294877
173	0xbde3b2dc	-0.11118099
174	0xbce34f7f	-0.027747868
175	0x3d05e0b1	0.032684986
176	0x3dc7db7b	0.097586595
177	0xbd999e8a	-0.07500942
178	0x3e7f04e9	0.24904217
179	0xbda98cb0	-0.08278787
180	0xbced6f77	-0.028983815
181	0xbd44baa2	-0.04802955
182	0x3cfc6f9d	0.03081494
183	0x3d70e633	0.058813285
184	0xbdcf31f5	-0.101169504
185	0x3d2b73c4	0.04185845
186	0xbd7d9446	-0.061908983
187	0x3e08d14f	0.13361095
188	0xbd277c8b	-0.040890258
189	0xbd52c6c8	-0.051459104
190	0xbdf0c04d	-0.117554285
191	0x3cda898b	0.026676914
192	0x3dc985a2	0.098399416
193	0xbd3108a4	-0.04322113
194	0xbce66246	-0.028123032
195	0xbd8e8bda	-0.06960268
196	0xbcb5d8c9	-0.022198098
197	0xbdde728a	-0.1086169
198	0xbd9820aa	-0.07428105
199	0xbd8998f2	-0.06718625
200	0x3c418f0f	0.011813893
201	0x3e2bb164	0.16766888
202	0x3e0692c2	0.13141921
203	0x3e64239c	0.22279209
204	0xbd4f6851	-0.050636593
205	0x3c895f5b	0.016769102
206	0xbdcaf7d4	-0.09910551
207	0x3d9dd00c	0.077056974
208	0x3da22d9f	0.07918858
209	0x3d30064a	0.042974748
210	0x3d8475d6	0.06467788
211	0xbe21c674	-0.1579836
212	0x3dd2910a	0.1028157
213	0x3cd746db	0.026278904
214	0x3dbdd7c9	0.092696734
215	0x3ca26b3b	0.019826522
216	0x3dbd7ba6	0.092521
217	0xbcf5a758	-0.029987022
218	0xbd8e0bd5	-0.069358505
219	0x3dc97e07	0.09838491
220	0xbd96013f	-0.073244564
221	0x3e6d93f7	0.23200975
222	0xbda3d83f	-0.0800023
223	0xbd01730a	-0.03160385
224	0x3e070e21	0.13188984
225	0x3e01c853	0.12674074
226	0xbc2eba62	-0.010664554
227	0x3e0f7452	0.14009216
228	0xbe419583	-0.1890469
229	0xbcf18d3a	-0.029486287
230	0xbd7bb87e	-0.061455242
231	0x3c127ec9	0.008941361
232	0x3b8c004d	0.004272497
233	0xbcd32352	-0.025773678
234	0x3d3148b5	0.04328223
235	0x3d6fa56f	0.05850738
236	0x3d0b5e78	0.03402564
237	0xbd81c19b	-0.063357554
238	0xbd935c0e	-0.071952924
239	0x3c9893ab	0.018625101
240	0xbbd4acc0	-0.00649032
241	0xbae427a0	-0.0017406829
242	0x3d4eb22d	0.05046289
243	0xbd1ca3ec	-0.038242266
244	0xbcdb9f16	-0.026809257
245	0x3d98798c	0.07445058
246	0xbdce31b1	-0.10068072
247	0x3e022b06	0.12711725
248	0xbe061f00	-0.13097763
249	0x3bc0fd58	0.005889576
250	0x3c0a730b	0.00845028
251	0x3e2292b7	0.1587628
252	0xbd89ff93	-0.067382
253	0x3ca9f623	0.02074725
254	0xbdafe328	-0.085882485
255	0x3d043a31	0.03228206

bias f4 [64]
0	0x3c450109	0.012024173
1	0xbcecf8c3	-0.028927213
2	0x3c737d28	0.014861383
3	0xbd516622	-0.051122792
4	0x3c29c49e	0.010361819
5	0xbbbe31ad	-0.0058042617
6	0xbd405ffc	-0.046966538
7	0xbd93ea29	-0.07222397
8	0x3bfc7332	0.007704162
9	0xbcfe6599	-0.031054305
10	0xbd1d847b	-0.03845642
11	0xbca8c0f4	-0.02059982
12	0xbe1dd705	-0.15414055
13	0xbdb8bb73	-0.09020128
14	0xbd695498	-0.05696544
15	0xbcd216a8	-0.025645569
16	0xbc82cbde	-0.015966352
17	0x3b6fbeca	0.0036582225
18	0xba6e9716	-0.0009101493
19	0xbd2fc3f8	-0.0429115
20	0xbdef4afa	-0.116842225
21	0xbdd2b2f4	-0.10288039
22	0x3c9971ac	0.01873096
23	0xbc899fb8	-0.016799793
24	0xbcb7d5b0	-0.022440761
25	0x38f04401	0.000114567585
26	0xbd89a05a	-0.06720038
27	0xbc1b1165	-0.009464596
28	0x3d8491dd	0.06473134
29	0xbd17e308	-0.03708175
30	0xbb8cc429	-0.004295845
31	0xbd09aea9	-0.033613835
32	0xbd6ac184	-0.057313457
33	0xbd26413f	-0.040589567
34	0xbdabc476	-0.08387081
35	0xbd2072e5	-0.039172072
36	0xbd61978a	-0.05507616
37	0x3c8643da	0.016389776
38	0xbc4e3347	-0.012585468
39	0xbd150775	-0.036384065
40	0xbd865e7b	-0.065609895
41	0xbd4bd18a	-0.04976038
42	0xbcc0ee56	-0.023551147
43	0x3baf05ed	0.0053412826
44	0xbcab2d63	-0.020895666
45	0xbe1b9cc5	-0.15196522
46	0xbd8c13d8	-0.068397224
47	0xbd471280	-0.048601627
48	0xbdd320c1	-0.10308982
49	0xbd77e794	-0.060523584
50	0xbd79c9eb	-0.06098358
51	0xbdb4b399	-0.08823318
52	0xbd1d4565	-0.038396258
53	0x3bdbf0b1	0.0067120423
54	0xbc8f7a24	-0.017514296
55	0xbdd3c6dc	-0.10340664
56	0xbd5c71fc	-0.05381964
57	0x39de1678	0.0004235988
58	0xbd190c85	-0.037365455
59	0x3b529c2e	0.0032136547
60	0xbe13fc7f	-0.14451788
61	0x3ca98f64	0.020698257
62	0xbdc41f22	-0.095762506
63	0xbc812024	-0.015762396

weight f4 [124, 64]
0	0xbdd32e1f	-0.10311531
1	0xbde3e20a	-0.11127098
2	0x3ce9c0cf	0.028534321
3	0x3e0bf20a	0.1366655
4	0x3ccda8ea	0.025104959
5	0xbd6b608e	-0.05746513
6	0xbdd6b552	-0.10483803
7	0xbd81676b	-0.063185535
8	0xbdbe4b2e	-0.09291683
9	0xbd37dba2	-0.044887193
10	0x3d975f40	0.07391214
11	0x3da9f5a9	0.08298809
12	0x3d20fe3b	0.039304953
13	0xbda8d0fc	-0.082429856
14	0xbe548064	-0.20752102
15	0x3dcec894	0.10096851
16	0x3dc51dc4	0.09624818
17	0x3d77217e	0.060334675
18	0x3e6c7652	0.2309201
19	0x3db0ba00	0.08629227
20	0x3d8636a1	0.065533884
21	0xbbcf279f	-0.006321862
22	0xbe08f8cd	-0.1337616
23	0xbd12ee61	-0.035871867
24	0x3d87fd45	0.06640104
25	0xbd8047ae	-0.06263672
26	0xbd123f3a	-0.03570483
27	0x3e4ead08	0.20183194
28	0x3dc0ee89	0.09420497
29	0x3e0e4307	0.13892756
30	0xbe2580a5	-0.16162355
31	0x3d82ec55	0.06392733
32	0x3d45dfa1	0.048308972
33	0x3e4231cb	0.18964307
34	0xbc761924	-0.015020642
35	0xbda9e3bc	-0.0829539
36	0xbe0b59b7	-0.13608442
37	0xbd504430	-0.05084628
38	0x3c5e541a	0.013569856
39	0xbdc4de85	-0.09612755
40	0xbdec6693	-0.11543002
41	0xbc211fcb	-0.00983424
42	0x3dc366b9	0.09541077
43	0xbe815739	-0.25261858
44	0x3e0cc216	0.13745913
45	0x3d20a0d4	0.039215878
46	0x3e794c13	0.24345426
47	0x3e5c288c	0.21499842
48	0x3d18deb3	0.037321758
49	0x3c08e432	0.008355187
50	0xbcd7a577	-0.026324017
51	0x3c835240	0.01603043
52	0xbe332cc5	-0.17497547
53	0xbe44bf01	-0.19213487
54	0xbdd1d2c7	-0.10245281
55	0xbd181199	-0.037126157
56	0xbd7ff086	-0.06248524
57	0x3e1d6534	0.15370637
58	0xbc4e28c6	-0.012582963
59	0x3e1d5255	0.15363438
60	0x3e02d6b4	0.12777215
61	0xbd145a63	-0.036219012
62	0xbb63776c	-0.0034708632
63	0x3e4c0a15	0.19925721
64	0x3d500970	0.05079025
65	0x3c41be67	0.011825181
66	0xbe8e909e	-0.2784471
67	0x3d76df37	0.060271468
68	0x3c85787b	0.016292801
69	0x3e3a197b	0.18173783
70	0xbda11b2b	-0.0786651
71	0xbd4d6081	-0.05014086
72	0x3e53f962	0.207006
73	0xbdd93a60	-0.10606837
74	0x3d785ae9	0.060633574
75	0xbe5fe9eb	-0.21866576
76	0x3d5a3234	0.053270534
77	0xbd9d348a	-0.07676037
78	0xbdc6e508	-0.09711653
79	0xbcda1725	-0.026622364
80	0xbd0e1a8f	-0.034693297
81	0xbe0c9b48	-0.1373111
82	0x3dd3f7c3	0.10349991
83	0xbdb7b6eb	-0.08970436
84	0xbde6144e	-0.112343416
85	0xbcb7b144	-0.022423394
86	0x3d4a345b	0.049366336
87	0x3d9ac527	0.07557135
88	0x3dfa2fd7	0.12216156
89	0xbe2f7c1e	-0.1713719
90	0xbe4a4ac3	-0.19755082
91	0xbddccbc1	-0.107810505
92	0xbdb58cf7	-0.088647775
93	0x3de88299	0.113530345
94	0xbd2db545	-0.0424092
95	0xbd9a7215	-0.07541291
96	0xbc7a0060	-0.0152588785
97	0xbd8509e1	-0.06496025
98	0x3c80743e	0.015680429
99	0xbdb2aff1	-0.087249644
100	0x3da917ae	0.0825647
101	0x3cef4e3b	0.029212108
102	0xbe2c425b	-0.16822188
103	0xbc82968c	-0.015940927
104	0x3d9e8898	0.07740897
105	0xbdc328a1	-0.09529234
106	0x3d2366bc	0.039892897
107	0x3ce85d79	0.028364884
108	0x3ca72590	0.020403653
109	0xbc8c76a8	-0.017146423
110	0xbdb90a0c	-0.090351194
111	0x3da9e100	0.082948685
112	0xbe455286	-0.19269761
113	0x3e1164ae	0.14198563
114	0xbe146458	-0.14491403
115	0x3cf7a0d6	0.03022806
116	0xbd4b79db	-0.049676757
117	0x3be845aa	0.0070883827
118	0x3d85258f	0.06501304
119	0xbd0f4c85	-0.034985084
120	0xbe4fffaa	-0.20312372
121	0x3ccd8f8b	0.02509286
122	0x3d85e3bf	0.0653758
123	0xbd5930f3	-0.053025197
124	0xbab5d4a0	-0.0013872571
125	0x3dbc5702	0.09196283
126	0xbe4c6088	-0.19958699
127	0x3dc6b143	0.09701779
128	0x3c6388cf	0.013887598
129	0x3cd42e0d	0.025900865
130	0xbd906630	-0.07050741
131	0x3e0ebe61	0.13939811
132	0x3ced2f93	0.02895335
133	0x3d7e2776	0.06204935
134	0x3d8ac070	0.06774986
135	0xb899f550	-7.3413015e-05
136	0xbd92cb7f	-0.0716772
137	0x3ce796bf	0.028270124
138	0x3d09778e	0.03356128
139	0xbd9b4f3b	-0.075834714
140	0x3d97a2a8	0.07404071
141	0xbd0af655	-0.033926327
142	0x3d09e268	0.033663183
143	0xbcc452e2	-0.023965303
144	0x3e253079	0.16131772
145	0x3cd9a120	0.026566088
146	0xbcda54c5	-0.02665175
147	0x3b68e478	0.0035536569
148	0x3d26e553	0.040746044
149	0xbd8ddbcb	-0.06926688
150	0xbda7022a	-0.0815471
151	0x3dfae448	0.122505724
152	0xbe37481e	-0.17898604
153	0xbcbd6767	-0.023120595
154	0xbd807e8f	-0.06274139
155	0x3c999849	0.018749373
156	0x3df33f5a	0.11877318
157	0x3d7c31c9	0.061570916
158	0xbd08fd54	-0.033444718
159	0x3cce4dbe	0.025183555
160	0xbd0a596c	-0.033776686
161	0x3e1a9246	0.15094861
162	0xbe0949ae	-0.13407013
163	0x3da50a25	0.080585755
164	0x3d896de6	0.067104146
165	0xbde84524	-0.113413125
166	0xbe37bcff	-0.1794319
167	0xbe3b718c	-0.18305033
168	0xbcdccd30	-0.02695331
169	0x3cdfda44	0.027325757
170	0xbdf021af	-0.11725175
171	0xbe0aa8db	-0.13540976
172	0xbde8f1dc	-0.11374256
173	0x3d68cbdf	0.05683505
174	0x3e0c2a70	0.13688064
175	0xbd1e7d42	-0.038693674
176	0xbd9d9cb8	-0.07695907
177	0x3d70ab96	0.058757387
178	0x3e21d262	0.15802911
179	0x3e609177	0.2193049
180	0x3cef7469	0.029230313
181	0xbe3837b0	-0.17989993
182	0xbd651b37	-0.055934157
183	0x3d26a317	0.04068288
184	0x3d8d92bd	0.06912754
185	0xbd6fb724	-0.058524266
186	0x3e04bd19	0.1296276
187	0x3df83174	0.121188074
188	0x3e364d80	0.17803001
189	0xbc57c1c2	-0.013168754
190	0xbe02310a	-0.1271402
191	0x3d582335	0.05276795
192	0xbdc5a3da	-0.09650393
193	0xbdc96286	-0.09833245
194	0x3d30970a	0.043112792
195	0x3df93be2	0.12169625
196	0x3e1acdac	0.1511752
197	0x3d7214d7	0.059101906
198	0xbe0eef5f	-0.139585
199	0xbcaed78c	-0.021343015
200	0xbd5d3157	-0.054002132
201	0x3e0cbdfd	0.1374435
202	0x3cacd5a0	0.021097958
203	0x3cb53002	0.022117618
204	0x3dfe4b4b	0.12416705
205	0x3dd020dd	0.10162518
206	0x3a90bf97	0.0011043426
207	0xbd5be07e	-0.05368089
208	0xbdc80a49	-0.09767587
209	0x3e0ed55e	0.1394858
210	0x3d4e5641	0.050375227
211	0x3d25f9f3	0.040521573
212	0xbd8c4e50	-0.068508744
213	0x3dbd99f5	0.092578806
214	0x3d5bdad3	0.053675484
215	0x3d8f4830	0.069961905
216	0xbe0c80e9	-0.1372105
217	0x3e822a99	0.25423124
218	0x3d7c9653	0.061666798
219	0x3d4ee0f5	0.050507504
220	0x3ccaa797	0.024738116
221	0x3df25eed	0.11834512
222	0xbe566022	-0.2093511
223	0x3dd2309a	0.10263176
224	0x3da51038	0.08059734
225	0x3e6682ef	0.22510885
226	0xbd56be49	-0.052427564
227	0xbdda3ba1	-0.106559046
228	0x3e139e3c	0.1441583
229	0xbdf27ecd	-0.118405916
230	0x3e209293	0.15680914
231	0xbdbd3404	-0.09238437
232	0x3d6e527b	0.05818413
233	0xbc0e3f36	-0.008682063
234	0x3e01c20a	0.12671676
235	0x3c58ff98	0.013244532
236	0x3c3aa66d	0.011392218
237	0x3bc0671b	0.005871666
238	0x3ded12ee	0.11575876
239	0xbdadeb88	-0.0849219
240	0xbe0e997f	-0.13925742
241	0xbe2c7688	-0.16842091
242	0x3c305ae6	0.010763859
243	0x3d0820b5	0.033234317
244	0xbe4cc8be	-0.19998452
245	0x3d2cf783	0.042228233
246	0xbcb4dc99	-0.022077845
247	0x3d80aaef	0.06282603
248	0xbdc94bab	-0.09828886
249	0x3d217fbc	0.039428458
250	0x3de83df0	0.11339939
251	0x3e5b11c8	0.21393502
252	0x3d53ec4f	0.051739033
253	0x3dce0a7c	0.100605935
254	0x3e310835	0.17288287
255	0x3dd31486	0.10306649

bias f4 [124]
0	0x3ce36b01	0.027760984
1	0xbd798c7c	-0.060924992
2	0xbce8eb18	-0.028432414
3	0xbd8ff791	-0.070296414
4	0xbd47481c	-0.048652753
5	0xbcc00848	-0.023441449
6	0xbde9c0b4	-0.11413708
7	0xbd87bd4e	-0.06627904
8	0x3d4caad4	0.049967602
9	0x3d2262cd	0.039645005
10	0xbdfe9b9f	-0.12432026
11	0xbda62e61	-0.08114315
12	0xbcc9b6a7	-0.024623228
13	0xbd8a65ec	-0.06757721
14	0xbe8e0ff4	-0.27746546
15	0xbcc6a1f7	-0.024247153
16	0xbc81ee98	-0.01586084
17	0xbe18709b	-0.14886706
18	0x3d9479bd	0.07249782
19	0xbe096fa8	-0.134215
20	0x3b57a6d1	0.0032905827
21	0xbd610010	-0.0549317
22	0xbdbeca3a	-0.093159154
23	0xbd33c4ec	-0.04388897
24	0xbdea9ce2	-0.11455704
25	0x3d210d12	0.039319105
26	0x3c93b039	0.018028365
27	0xbdb33eb0	-0.08752191
28	0xbdd91cd6	-0.10601203
29	0xbdb12d64	-0.08651236
30	0xbd9d43b6	-0.076789305
31	0xbccee9bd	-0.02525794
32	0xbd88bd98	-0.06676787
33	0x3d7a738c	0.06114535
34	0xbd4c6256	-0.049898468
35	0xbc213481	-0.009839178
36	0xbdddfe04	-0.10839465
37	0x3c9f4e69	0.019446569
38	0xbd5abada	-0.05340085
39	0xbd785fd6	-0.06063827
40	0xbdf54275	-0.11975566
41	0xbc905b49	-0.017621653
42	0xbe1b4c44	-0.15165812
43	0xbc95c654	-0.018283047
44	0xbe359fdb	-0.17736761
45	0x3dbcf639	0.09226651
46	0x3cdb2b9f	0.026754199
47	0xbd62cc81	-0.05537081
48	0x3da0565d	0.078289725
49	0xbbf74662	-0.007546232
50	0xbe1b5be1	-0.15171768
51	0x3d9afe05	0.07567982
52	0xbd8aa949	-0.0677057
53	0xbcac27bc	-0.02101504
54	0xbe020b66	-0.1269966
55	0xbdfdd27f	-0.123936646
56	0xbde4dc60	-0.11174846
57	0xbcf7885f	-0.030216394
58	0x3db2f38f	0.08737861
59	0xbd0c9212	-0.03431899
60	0xbcdba24e	-0.026810791
61	0xbd5309ce	-0.051523022
62	0xbe2b4fda	-0.1672968
63	0x3b51dca0	0.0032022372
64	0xbde71f32	-0.11285247
65	0x3cb87e56	0.02252118
66	0xbd26919b	-0.040666204
67	0xbe12d6b9	-0.14339723
68	0xbc901938	-0.01759015
69	0xbddea9b8	-0.10872215
70	0xbd4ebed7	-0.050474968
71	0x3a8abcf2	0.0010584875
72	0xbdb94389	-0.090460844
73	0xbd727b6c	-0.059199736
74	0xbd0985b4	-0.033574775
75	0x3d064610	0.03278166
76	0xbd4a4c32	-0.04938907
77	0x3c3d2f08	0.011546858
78	0xbe3642c2	-0.17798904
79	0xbe621474	-0.22078115
80	0xbda19cde	-0.07891248
81	0xbe22909f	-0.15875481
82	0x3c6a3d35	0.014296819
83	0x3d27f891	0.041008536
84	0xbdaaea53	-0.08345475
85	0xbe0c3e60	-0.13695669
86	0x3da23146	0.079195544
87	0xbdbb7d00	-0.09154701
88	0xbd7c41ef	-0.061586317
89	0xbe347ea6	-0.17626438
90	0xbcae75fa	-0.02129649
91	0xbd4b9d21	-0.049710397
92	0xbd0fa318	-0.035067648
93	0x3d826c53	0.063683175
94	0xbdc08943	-0.094011806
95	0xbde2e080	-0.11077976
96	0xbe254eda	-0.1614336
97	0xbd9285e8	-0.07154447
98	0xbda315d9	-0.079631515
99	0xbdeb396b	-0.11485561
100	0xbe21cb45	-0.15800197
101	0x3c8709b4	0.016484119
102	0x3d1edf8f	0.03878742
103	0xbc4e37df	-0.012586563
104	0x3d935e28	0.07195693
105	0xbd65cd35	-0.056103904
106	0xbe975712	-0.29558617
107	0xbd730e66	-0.059339903
108	0xbd7fa847	-0.06241634
109	0xbdc6af02	-0.09701349
110	0xbcc17ea7	-0.023619963
111	0xbdd51819	-0.10404987
112	0x3d291d9e	0.04128801
113	0xbe0f45e5	-0.13991506
114	0x3c91f834	0.017818548
115	0xbde5e6e1	-0.11225677
116	0x3c5dc55e	0.013535826
117	0xbd251f75	-0.040313203
118	0xbe322dac	-0.17400235
119	0xbd295cf2	-0.041348405
120	0xbd7e7472	-0.06212277
121	0x3dcd7c45	0.10033468
122	0xbda82bc0	-0.0821147
123	0x3d55c2f2	0.052187867

weight f4 [124, 124]
0	0xbdca0cd6	-0.098657295
1	0x3d66b730	0.056327045
2	0xbd154e8e	-0.03645187
3	0xbd18b340	-0.03728032
4	0xbd936bc0	-0.07198286
5	0xbd9f93b1	-0.07791842
6	0xbd5b084d	-0.053474713
7	0x3e17d28d	0.14826412
8	0xbc25b1ec	-0.010113221
9	0xbbc759b8	-0.0060836934
10	0xbcd77fbb	-0.026306024
11	0x3d968898	0.07350272
12	0xbd403a24	-0.046930447
13	0xbd367ddd	-0.044553626
14	0x3d34ffc3	0.044189226
15	0x3ceb550a	0.028727073
16	0xbd8e5f0d	-0.06951723
17	0xbd8c1c81	-0.06841374
18	0x3caf4107	0.021393312
19	0x3c575e44	0.013145033
20	0x3e319ddc	0.17345375
21	0x3d88ed4e	0.06685887
22	0xbd2791e0	-0.0409106
23	0xbe2b0050	-0.16699338
24	0xbd01f03d	-0.03172325
25	0x3de11b57	0.10991543
26	0xbe2413c0	-0.16023159
27	0xbcd5ac74	-0.026083209
28	0xbc492945	-0.012277906
29	0xbd185c38	-0.03719732
30	0x3c5b7eec	0.01339696
31	0xbcc6cdc7	-0.024268044
32	0xbd3768e2	-0.04477776
33	0xbdeb2a8f	-0.11482727
34	0xbd5befe6	-0.05369558
35	0xbd0f4468	-0.034977347
36	0xbe0c4777	-0.13699137
37	0xbe58a309	-0.21155943
38	0x3d06f199	0.03294525
39	0xbc859554	-0.016306557
40	0xbd6fdecd	-0.05856209
41	0xbde230d9	-0.11044473
42	0x3a89f6cf	0.0010525825
43	0xbc8f807f	-0.017517326
44	0x3d045452	0.032306977
45	0x3d48558f	0.04890972
46	0xbc3a9f4d	-0.011390519
47	0x3bd4184a	0.006472622
48	0xbe2d539a	-0.16926423
49	0xbe9a96ba	-0.3019312
50	0xbddbe2a1	-0.107365854
51	0x3e022cda	0.12712422
52	0x3d2a76ab	0.041617077
53	0xbe0a685f	-0.13516377
54	0xbe01043c	-0.12599272
55	0xbcc98d5e	-0.024603542
56	0x3d105a6f	0.035242494
57	0xbdf4d759	-0.11955137
58	0xbe0ee649	-0.13955034
59	0xbd956399	-0.07294387
60	0xbe3191bd	-0.17340751
61	0xbde22c49	-0.11043603
62	0xbb793ff0	-0.0038032494
63	0x3d12063c	0.035650477
64	0x3df7ef54	0.12106195
65	0xbd82f7c6	-0.06394915
66	0x3dab4edc	0.083646506
67	0x3c5ebcb0	0.013594791
68	0xbe10711e	-0.14105651
69	0x3e0ba13c	0.13635725
70	0x3d11be9e	0.035582177
71	0xbc9e2b7a	-0.01930784
72	0xbe02a0e4	-0.12756687
73	0xbe05561e	-0.13021132
74	0xbe336e57	-0.1752256
75	0xbd371e6e	-0.044706754
76	0x3d431167	0.047624018
77	0xbd3fca31	-0.046823684
78	0xbc87535c	-0.016519241
79	0xbc24df64	-0.010063026
80	0x3d018294	0.03161867
81	0xbd80eed8	-0.06295556
82	0xbd46ed1a	-0.04856596
83	0x3cc55291	0.024087222
84	0xbe3b6d55	-0.18303426
85	0x3d21d136	0.03950616
86	0x3d97125a	0.07376547
87	0xbdcf2508	-0.10114485
88	0xbdf7eaab	-0.12105306
89	0x3c8ab0e4	0.016930051
90	0x3d5c895c	0.053841934
91	0xbe871e76	-0.26390427
92	0xbbb6b907	-0.005576256
93	0x3b9ec5da	0.004845363
94	0x3d205e16	0.039152227
95	0x3aec5872	0.001803173
96	0x3c79b0f3	0.015239942
97	0x3d1f118a	0.038835086
98	0xbe281809	-0.16415419
99	0xbde6b14b	-0.11264285
100	0x3e3fb181	0.18720056
101	0x3ccce5ec	0.025011979
102	0xbb8ed181	-0.004358471
103	0x3d9a47d3	0.07533231
104	0x3df89534	0.12137833
105	0x3d740805	0.05957796
106	0xbccbd92d	-0.02488383
107	0xbdbce8d6	-0.092240974
108	0x3cd7bdf9	0.026335703
109	0x3ce1abd6	0.027547758
110	0x3ddc4de7	0.10757046
111	0xbdb5074f	-0.08839285
112	0x3d1fd3b3	0.03902025
113	0x3bd6fc60	0.006560847
114	0xbd79d2a8	-0.060991913
115	0x3c71fae4	0.01476929
116	0xbeaedbbe	-0.34152025
117	0x3cbbc1cc	0.022919558
118	0x3d111c2b	0.035427254
119	0x3d446d92	0.047956057
120	0xbdf570d8	-0.11984414
121	0xbcbf225e	-0.023331817
122	0xbd35220f	-0.044221934
123	0xbe3ad620	-0.18245745
124	0x3e1523e3	0.14564471
125	0xbcc671d8	-0.024224207
126	0x3d167f7a	0.036742665
127	0x3d96d8d2	0.07365574
128	0x3dfe8fbe	0.124297604
129	0x3ddf1710	0.10893071
130	0xbd895605	-0.0670586
131	0xbcf6f700	-0.030147076
132	0xbcbd5aa6	-0.023114514
133	0x3deb2051	0.11480773
134	0x3deb8230	0.11499441
135	0x3cb8e4dd	0.022570068
136	0x3cebcd4c	0.028784417
137	0xbe1dc063	-0.15405421
138	0x3d5ef215	0.054430086
139	0x3cbeac3a	0.023275483
140	0x3d634b86	0.055491947
141	0xbd095ed8	-0.033537716
142	0x3dddaa5e	0.108235106
143	0xbcd0cbea	-0.025487859
144	0xbe930aab	-0.28719077
145	0xbcddc542	-0.027071599
146	0xbe03785f	-0.12838887
147	0xbd478869	-0.048714075
148	0xbca7cfe3	-0.02048487
149	0x3ca0d46a	0.019632537
150	0xbd8b3597	-0.06797331
151	0xbc0242bb	-0.00795048
152	0xbca60e97	-0.020270629
153	0x3bf2cdb5	0.007409776
154	0x3d4b49f7	0.049631085
155	0x3b540bd8	0.0032355692
156	0x3e0c16cf	0.13680576
157	0x3c79c51b	0.0152447475
158	0xbdd1727a	-0.10226913
159	0xbd45b181	-0.048264984
160	0x3c14b976	0.00907742
161	0xbd98183f	-0.074264996
162	0xbb80bd3d	-0.003928809
163	0x3e0cdb66	0.13755569
164	0x3bf87a2e	0.0075829243
165	0x3ce04d4d	0.02738061
166	0x3bdbc11c	0.00670637
167	0xbd134584	-0.035954967
168	0x3d8b7219	0.06808872
169	0x3d0ba8c8	0.03409651
170	0x3d190630	0.037359416
171	0xbdeefa59	-0.11668844
172	0x3cc79233	0.024361705
173	0x3d0cd613	0.034383845
174	0xbdbf1467	-0.09330063
175	0xbe54b88c	-0.20773524
176	0xbc7f3d19	-0.015578532
177	0x3c0030e2	0.007824155
178	0x3d6d4c74	0.05793424
179	0xbd7c5040	-0.06159997
180	0x3dba22ae	0.09088646
181	0x3e0b4619	0.13600959
182	0x3d28de79	0.04122779
183	0xbdeedced	-0.11663232
184	0xbcf5edff	-0.030020712
185	0x3d3c9846	0.046043657
186	0x3e15de45	0.1463557
187	0xbd54725c	-0.051866874
188	0xbe137a6f	-0.14402173
189	0xbcd9a404	-0.026567467
190	0xbdff0a68	-0.12453157
191	0xbd5c44f4	-0.053776696
192	0x3dd68f65	0.10476569
193	0xbcbc368b	-0.022975227
194	0x3c0e47f0	0.008684143
195	0xbe1b60cd	-0.15173645
196	0x3d45ef4e	0.04832392
197	0xbdc036c6	-0.09385447
198	0xbdf9a115	-0.12188927
199	0x3bb5e3b8	0.005550828
200	0x3c76b09f	0.015056758
201	0xbd9a1aa2	-0.07524611
202	0x3e08159e	0.13289496
203	0xbda90e50	-0.08254683
204	0x3d95b515	0.07309929
205	0x3d893a43	0.06700566
206	0xbe255eab	-0.16149394
207	0x3c07795b	0.0082686795
208	0x3e273987	0.16330539
209	0x3d4dfe53	0.05029137
210	0xbccf1918	-0.02528052
211	0xbd095ea4	-0.033537522
212	0x3dd551f6	0.104160234
213	0x3e708fbb	0.23492329
214	0xbe16e003	-0.14733891
215	0x3da30296	0.079594776
216	0xbc6f33ba	-0.014599735
217	0xbe1fd05a	-0.15606824
218	0x3da5fcca	0.08104856
219	0xbe08c29e	-0.1335549
220	0x3cb69942	0.022289876
221	0xbe23891f	-0.15970276
222	0xbdfff3f3	-0.124977015
223	0x3df4173a	0.119184926
224	0x3d93f99c	0.072253436
225	0x3c097796	0.008390328
226	0xbdae19cd	-0.08501015
227	0xbbf21f9f	-0.0073890234
228	0xbe652309	-0.22376646
229	0xbd5c10e4	-0.053727046
230	0xbce1c7da	-0.027561117
231	0x3da766ae	0.081738815
232	0x3d8521a2	0.065005556
233	0x3df9c770	0.12196243
234	0xbda29855	-0.07939211
235	0xbe0f1101	-0.1397133
236	0xbd01b526	-0.031666897
237	0xbe3a14ec	-0.18172044
238	0xbc5a2035	-0.013313343
239	0x3d2f0ffe	0.04273986
240	0xbdb6f66c	-0.0893372
241	0x3e3090d5	0.17242749
242	0x3d69d927	0.05709186
243	0xbd6555e7	-0.055990126
244	0xbe0d8363	-0.13819651
245	0x3d0e5e86	0.034758113
246	0xbd59ef40	-0.053206682
247	0xbd9e4122	-0.07727267
248	0xbdbf693a	-0.09346242
249	0xbdcfbed2	-0.10143818
250	0x3da90627	0.082531266
251	0x3dbda8dd	0.09260724
252	0x3e1d4226	0.15357265
253	0x3e45bd1d	0.19310422
254	0xbd8ffc32	-0.07030524
255	0x3d47f44a	0.048816957
